model.pt (torch, 21245 bytes, 5 tensors)

hiddenlayers.0.weight f4 [64, 5]
-0.24386427 0.057813853 -0.45318004 0.10879626 0.42655948 0.5419886 -0.21489574 -1.0951962
0.24173987 0.2048519 0.27210292 -0.02682927 -0.039029885 0.26535553 -0.43805972 -0.8160062
0.467535 2.7692828 0.18036611 -0.45371428 -1.03549 0.20916627 3.5710206 0.47333473
-0.20353942 -0.08882779 0.35962585 2.623376 0.20138602 -0.21940202 -0.3063055 0.3492487
2.0884852 -0.10937241 0.13571925 0.17499834 -0.10220905 0.21111457 0.31113562 -0.038577586
-0.015418421 -0.32793286 -0.2982407 -0.13237698 -0.40014255 -0.056869052 0.46959946 1.54
-0.41319415 -0.40403938 2.0942392 -0.07462105 -3.989539 -0.026670929 0.12303208 -0.24629019
0.16375473 2.6749365 -0.07553199 -0.16435418 0.018084928 -0.1546719 0.22906312 -0.33380967
-0.2043126 -0.084140755 -0.04718108 0.2100102 0.443664 -0.404356 -0.22759306 -0.19655159
0.8694405 -0.28997055 0.33188662 0.04991736 0.21799292 0.81583035 0.348604 0.16339754
-0.5940509 0.32809055 1.7773796 -0.04585277 -0.04193034 0.011176351 0.1863517 0.79931575
0.129473 0.26645038 0.43705997 -0.1814775 -1.7421705 0.2630757 0.47797713 0.5365243
-0.07572695 -2.9650104 0.4034628 0.31829533 -0.22079325 0.03852518 -0.06536442 -0.3503384
-0.33199897 -0.29293454 -0.3598747 -0.071103886 0.01039451 -0.19285493 -0.42504248 0.351638
1.9755801 -0.3132289 -0.19035351 -0.34885946 0.42821407 1.4723792 0.20215757 0.003197456
-0.04148464 -0.36331025 0.15081121 0.35151106 -0.23947485 -0.13581619 0.15662766 1.7731868
0.33302763 -0.09385965 -0.044340998 0.10638117 0.26771402 -0.10800858 0.24811852 0.27717325
-0.1520519 -1.9868189 0.33398855 0.5382928 0.42823884 -0.03823676 -3.4158864 0.08780144
0.1897748 0.014320887 -0.28079906 0.3681001 0.3603446 -0.30851907 0.3013806 0.34808928
0.22033873 -0.45086923 0.21076697 -0.46705738 0.31963995 0.2485642 0.24475823 0.36576912
0.16472581 -0.34693572 -0.09770061 -0.18959431 -0.3235208 -0.3389782 -0.20683159 -0.025727311
0.29955727 -0.25618955 0.092617065 0.1946606 2.1384492 -0.3225154 0.020836886 -0.27711233
-0.26244882 0.2003512 0.43993816 -0.1749084 0.058227822 -0.24980181 -0.12862445 0.22767113
0.24810931 -0.44696945 0.29873446 2.2023957 0.23495962 -0.29619744 0.4454556 -0.0022721647
-1.8890586 0.1847948 0.4130075 -0.8221077 -0.054467496 4.89194 0.24909037 0.1284132
-0.32712695 0.43918324 1.3290234 -0.047794472 0.37390786 -0.11632026 -0.42874253 -0.19098602
-0.26416034 -0.09880049 0.41611066 -0.2803524 -0.18029617 0.14476317 -0.1628698 0.27375492
0.23459664 0.8083 -0.29666135 0.1358115 0.035673678 -0.21820547 0.10895604 -0.1948435
0.30001128 0.16895996 -0.30379155 -0.34028274 0.21373512 -0.0046900557 -0.6005412 0.42010227
0.9846154 0.023754805 0.19561747 0.23158818 -0.2619095 0.553684 -0.009602938 0.353729
0.044516865 0.068114415 -0.2143216 0.16828972 -0.3318907 0.024408776 0.14127891 1.8163431
-0.38457543 -0.23382913 0.24410851 0.06983362 -0.22321837 -0.07932332 -0.4172421 0.26666132
00000000: 8eb7 79be 38ce 6c3d 3707 e8be 93d0 de3d
00000010: 0166 da3e c4bf 0a3f a10d 5cbe 642f 8cbf
00000020: a88a 773e b2c4 513e 1351 8b3e 0fc9 dbbc
00000030: cddd 1fbd aedc 873e 5d49 e0be c8e5 50bf
00000040: bf60 ef3e ee3b 3140 e5b1 383e 3d4d e8be
00000050: f08a 84bf af2f 563e 9a8b 6440 ee58 f23e
00000060: a36c 50be 58eb b5bd e120 b83e 64e5 2740
00000070: 2338 4e3e ecaa 60be 13d4 9cbe bad0 b23e
00000080: bea9 0540 a4fe dfbd fdf9 0a3e c432 333e
00000090: fa52 d1bd 6b2e 583e 2b4d 9f3e 8803 1ebd
000000a0: 8b9d 7cbc d1e6 a7be 01b3 98be d58d 07be
000000b0: 7cdf ccbe 86ef 68bd 576f f03e b81e c53f
000000c0: 2f8e d3be 40de cebe 0408 0640 ecd2 98bd
000000d0: 9b54 7fc0 fe7c dabc 3ef8 fb3d 7f33 7cbe
000000e0: 52af 273e 2932 2b40 84b0 9abd 764c 28be
000000f0: d826 943c 5062 1ebe 868f 6a3e 1ae9 aabe
00000100: 5237 51be fd51 acbd f340 41bd ea0c 573e
00000110: ee27 e33e c007 cfbe 280e 69be d244 49be
00000120: a793 5e3f 0577 94be 0bed a93e 2576 4c3d
00000130: 8939 5f3e 42da 503f 397c b23e af51 273e
00000140: b813 18bf 7cfb a73e 2d81 e33f 1dd0 3bbd
00000150: 26bf 2bbd 041d 373c fbd2 3e3e f59f 4c3f
00000160: 9294 043e 2f6c 883e 53c6 df3e 3dd5 39be
00000170: 71ff debf dcb1 863e 6bb9 f43e a859 093f
00000180: bb16 9bbd bbc2 3dc0 ad92 ce3e 9bf7 a23e
00000190: a017 62be 94cc 1d3d c8dd 85bd 8e5f b3be
000001a0: c5fb a9be 84fb 95be 7f41 b8be ea9e 91bd
000001b0: bc4d 2a3c c37b 45be 2b9f d9be e509 b43e
000001c0: cfdf fc3f 8a5f a0be 08ec 42be b59d b2be
000001d0: e03e db3e ec76 bc3f 6502 4f3e 698c 513b
000001e0: cceb 29bd cd03 babe 416e 1a3e 42f9 b33e
000001f0: e538 75be 6613 0bbe 0063 203e c9f7 e23f
00000200: 9982 aa3e 7d39 c0bd e89e 35bd 5fde d93d
00000210: d011 893e 9a33 ddbd c812 7e3e a7e9 8d3e
00000220: 7eb3 1bbe 1550 febf 8c00 ab3e 8fcd 093f
00000230: 1f42 db3e 269e 1cbd e29d 5ac0 3ed1 b33d
00000240: 5354 423e 27a2 6a3c e5c4 8fbe 9e77 bc3e
00000250: 167f b83e 36f6 9dbe 8f4e 9a3e c238 b23e
00000260: 7aa0 613e 55d8 e6be 4cd3 573e 2522 efbe
00000270: d9a7 a33e 9d87 7e3e e7a1 7a3e 1746 bb3e
00000280: e2ad 283e 8fa1 b1be 4217 c8bd 0325 42be
00000290: 85a4 a5be 8d8e adbe a9cb 53be 15c2 d2bc
000002a0: 925f 993e 472b 83be 04ae bd3d 1c55 473e
000002b0: 5adc 0840 bd20 a5be 1eb2 aa3c abe1 8dbe
000002c0: b15f 86be dd28 4d3e 933f e13e 301b 33be
000002d0: 4c80 6e3d 0ccc 7fbe 21b6 03be 9f22 693e
000002e0: 5e10 7e3e 2ed9 e4be b9f3 983e 0df4 0c40
000002f0: 4199 703e 31a7 97be c212 e43e 99e8 14bb
00000300: accc f1bf d93a 3d3e b875 d33e a675 52bf
00000310: 4f19 5fbd c68a 9c40 8c11 7f3e c07e 033e
00000320: 2f7d a7be a0dc e03e 701d aa3f 23c4 43bd
00000330: da70 bf3e 5139 eebd 2484 dbbe d791 43be
00000340: 0640 87be e957 cabd 750c d53e 5a8a 8fbe
00000350: 8f9f 38be cc3c 143e 57c7 26be 9b29 8c3e
00000360: 1a3a 703e c0ec 4e3f ffe3 97be 2b12 0b3e
00000370: 901e 123d 4171 5fbe 5824 df3d 0e85 47be
00000380: 149b 993e d703 2d3e 918a 9bbe 8a39 aebe
00000390: 61dd 5a3e 0aaf 99bb 11bd 19bf a517 d73e
000003a0: c10f 7c3f 7099 c23c f24f 483e 7425 6d3e
000003b0: 0119 86be 3cbe 0d3f a455 1dbc f81b b53e
000003c0: 5157 363d 927f 8b3d 1f77 5bbe 2454 2c3e
000003d0: 94ed a9be eaf4 c73c 6bab 103e ee7d e83f
000003e0: 12e7 c4be e770 6fbe 95f7 793e ee04 8f3d
000003f0: 5b93 64be 4474 a2bd c2a0 d5be d587 883e

hiddenlayers.0.bias f4 [64]
-0.35120362 0.30666372 0.4402385 -0.252917 0.44018823 0.23655207 0.17519699 -0.43118566
0.08686073 0.4284938 -1.168109 0.35374898 0.048507642 0.31520882 0.34344676 -0.088499814
-0.2825359 0.34343737 0.31847706 0.31398797 -0.37521577 0.36623397 0.452359 -0.1518875
-0.27134073 0.5166541 0.45462704 0.035733126 0.36947176 0.092036314 0.4023767 0.37244442
-0.16253638 0.2596871 0.04604752 -0.4167107 -0.21000311 0.39428622 -0.20802686 1.5781434
-0.36898363 0.09450722 -0.32057202 0.17868383 0.04935048 -0.46238366 -0.29460612 0.060885932
-0.039783876 0.46911755 0.25044453 0.1603453 0.38475826 0.32670948 0.052815948 0.48101375
0.4317062 0.3269575 0.4440098 -0.20287502 0.2877911 -0.11151049 -0.2091186 0.20800962
00000000: f6d0 b3be 0703 9d3e f166 e13e 567e 81be
00000010: 5a60 e13e b53a 723e d766 333e 5ec4 dcbe
00000020: 0ae4 b13d 8a63 db3e 9984 95bf 961e b53e
00000030: f3af 463d 0d63 a13e 41d8 af3e 643f b5bd
00000040: 8ca8 90be 06d7 af3e 6d0f a33e 08c3 a03e
00000050: 481c c0be 0583 bb3e 999b e73e 6688 1bbe
00000060: 2ced 8abe 7143 043f e0c4 e83e e65c 123d
00000070: 672b bd3e 897d bc3d 5204 ce3e 09b1 be3e
00000080: f06f 26be b5f5 843e 539c 3c3d 1b5b d5be
00000090: 0e0b 57be e2df c93e fe04 55be 9a00 ca3f
000000a0: 6ceb bcbe 008d c13d 0422 a4be e5f8 363e
000000b0: bb23 4a3d 8dbd ecbe 9dd6 96be 8763 793d
000000c0: 6bf4 22bd 2d30 f03e 443a 803e 8f31 243e
000000d0: 09ff c43e 7746 a73e 8955 583d 6f47 f63e
000000e0: 9808 dd3e f966 a73e 4155 e33e 78be 4fbe
000000f0: 5b59 933e 9d5f e4bd 3023 56be 7900 553e

hiddenlayers.2.weight f4 [64, 64]
0.09193056 0.119613335 -0.022007555 -0.006823035 0.087712154 -0.032692254 0.03865042 -0.06385359
0.067098275 0.010435605 -0.02999309 0.21798624 0.033904716 0.077456295 0.03395776 -0.04699173
0.045176424 0.13028078 0.042662077 0.00017138688 0.11265068 -0.020739928 0.06599132 0.1265435
0.06455006 0.14163297 0.037007086 -0.12445943 -0.10019525 -0.11264379 0.087993026 -0.07627443
-0.08229539 -0.026219666 0.0627436 -0.06696679 0.052370984 -0.038368966 0.08620054 0.11342514
-0.025940418 0.07538523 -0.086763516 0.086271845 0.018663393 0.10281489 -0.015913995 0.15191276
-0.010164157 0.09870144 -0.04220189 -0.027514525 0.061376285 -0.03328081 -0.04059264 0.08599667
-0.0137771 -0.026013207 0.012969211 0.13673046 -0.14729439 -0.07650262 0.06585586 0.06627157
-0.105586216 -0.0030977726 0.069057316 -0.029096305 -0.008429274 -0.017599314 -0.008494645 -0.05275716
0.038957834 0.051149413 -0.015339553 0.0117302835 0.050107986 0.100329906 -0.0071575493 -0.11299549
-0.10391721 -0.058073014 0.1202998 -0.06736526 -0.108059555 0.04591936 0.010774225 -0.047775403
-0.08344422 0.009049654 -0.032728806 0.09177634 0.07226357 -0.07400423 0.1248918 -0.08734316
-0.00074112415 -0.04215467 0.01923135 -0.07291488 -0.091850415 -0.052384526 -0.1121552 -0.11718477
-0.01568304 -0.06771882 -0.031568572 0.034089044 -0.0507022 -0.005634427 0.046416342 0.080745846
0.08317925 -0.078101784 0.08365762 0.05475232 0.09670891 0.00020681322 -0.016025648 0.0915245
0.124459684 0.019118667 -0.041780144 0.11376934 -0.018060312 -0.10147618 -0.01437299 -0.00556466
-0.011226116 0.13449746 0.057650283 0.16522108 0.029564202 0.09754039 0.04771974 -0.095593765
-0.037466124 0.037094206 0.17740595 0.055401795 -0.10313885 0.028059036 0.09270778 -0.021185094
-0.063622445 -0.082008 0.064037226 -0.12148106 0.08870715 -0.09485312 0.011845666 0.04403911
-0.054383487 0.019005325 0.1420562 -0.14551343 -0.092754975 -0.025067925 0.04417454 -0.094488725
-0.102188945 0.075464845 -0.07196348 0.004637778 0.120887734 0.034539647 -0.1013286 0.22883813
0.03200756 0.055485845 0.05750683 -0.07851995 0.043462966 -0.031326048 0.09410519 0.13959682
-0.06293698 -0.05789909 0.08380243 0.07979622 0.11106919 0.081213236 0.055381 0.14021738
-0.06056538 0.068915546 0.019458741 0.0018487923 -0.075272046 0.06515819 0.14069724 0.04598032
-0.063253105 -0.10511412 -0.009090632 0.026550233 0.075489745 0.033710018 0.015405878 0.04723555
0.11465873 0.015944272 0.07650015 -0.001924485 -0.056564867 0.12055273 -0.06321332 0.06765434
-0.12349075 -0.07442397 -0.10826482 -0.024214715 -0.07354131 0.09651686 -0.10607916 0.010577634
0.116175875 -0.049499065 -0.010196775 0.036946297 0.0019821227 0.066554666 0.123392925 0.09912126
-0.11741538 -0.11999087 -0.11579716 0.0060667694 -0.10238427 -0.06416713 0.0908601 -0.0018187612
-0.08759749 0.08018364 -0.09448816 -0.05372411 -0.047389507 0.087967366 -0.08082251 -0.004108846
0.05421917 -0.07892294 0.0670526 -0.056517184 -0.019519374 0.06303829 0.052493706 0.032329544
-0.11962496 -0.061210603 0.07688564 0.06577675 -0.087262556 0.041077867 0.032196 -0.068652585
00000000: 1746 bc3d d6f7 f43d 3049 b4bc c493 dfbb
00000010: 6ea2 b33d 50e8 05bd e74f 1e3d acc5 82bd
00000020: d26a 893d 1afa 2a3c 12b4 f5bc c937 5f3e
00000030: acdf 0a3d 68a1 9e3d 4b17 0b3d 667a 40bd
00000040: ea0a 393d 5368 053e 6ebe 2e3d 51b6 3339
00000050: 66b5 e63d c8e6 a9bc 7526 873d 9f94 013e
00000060: d232 843d 3c08 113e be94 173d 96e4 febd
00000070: 2b33 cdbd cab1 e6bd b035 b43d c535 9cbd
00000080: 7c8a a8bd a0ca d6bc b77f 803d e225 89bd
00000090: f582 563d c728 1dbd e989 b03d 714b e83d
000000a0: 0081 d4bc 9263 9a3d 12b1 b1bd 4baf b03d
000000b0: f9e3 983c 9d90 d23d 115e 82bc 058f 1b3e
000000c0: 9087 26bc fb23 ca3d e4db 2cbd 2466 e1bc
000000d0: b365 7b3d 7551 08bd 7844 26bd 061f b03d
000000e0: 58b9 61bc a619 d5bc d07c 543c 1203 0c3e
000000f0: 57d4 16be 68ad 9cbd 70df 863d 64b9 873d
00000100: 963d d8bd 0004 4bbb ec6d 8d3d 605b eebc
00000110: f01a 0abc 702c 90bc 202d 0bbc e417 58bd
00000120: 4092 1f3d 0c82 513d c052 7bbc 6030 403c
00000130: 083e 4d3d c479 cd3d e089 eabb 2e6a e7bd
00000140: 8cd2 d4bd f8dd 6dbd be5f f63d ccf6 89bd
00000150: 544e ddbd f015 3c3d 6086 303c 24b0 43bd
00000160: cee4 aabd 0045 143c a40e 06bd 3cf5 bb3d
00000170: ecfe 933d 888f 97bd 46c7 ff3d f8e0 b2bd
00000180: 0048 42ba 60aa 2cbd 108b 9d3c 6654 95bd
00000190: 121c bcbd 2891 56bd a0b1 e5bd 92fe efbd
000001a0: b879 80bc 2ab0 8abd 0c4e 01bd f4a0 0b3d
000001b0: 1cad 4fbd 00a1 b8bb 101f 3e3d 145e a53d
000001c0: e259 aa3d d4f3 9fbd b054 ab3d f843 603d
000001d0: 520f c63d 00dc 5839 3848 83bc 3271 bb3d
000001e0: b8e4 fe3d c09e 9c3c a821 2bbd e6ff e83d
000001f0: 38f3 93bc bed2 cfbd b07c 6bbc c057 b6bb
00000200: beed 37bc b4b9 093e b422 6c3d b72f 293e
00000210: a030 f23c 42c3 c73d c675 433d aac6 c3bd
00000220: 1476 19bd 18f0 173d e8a9 353e feec 623d
00000230: 763a d3bd 10dc e53c 94dd bd3d 5d8c adbc
00000240: 7c4c 82bd cff3 a7bd f325 833d 10cb f8bd
00000250: 18ac b53d 5a42 c2bd 5314 423c 5b62 343d
00000260: 38c1 5ebd 0eb1 9b3c 2e77 113e 7901 15be
00000270: 52f6 bdbd 405b cdbc 5df0 343d 4e83 c1bd
00000280: 7048 d1bd 508d 9a3d 9761 93bd 80f8 973b
00000290: fd93 f73d 7279 0d3d 5e85 cfbd 8b54 6a3e
000002a0: 5c1a 033d 2045 633d 488c 6b3d 11cf a0bd
000002b0: 3906 323d be4f 00bd 39ba c03d 78f2 0e3e
000002c0: 1ae5 80bd 9927 6dbd 9ca0 ab3d 336c a33d
000002d0: 3e78 e33d 2053 a63d 30d7 623d 2595 0f3e
000002e0: 6713 78bd 9823 8d3d f067 9f3c 2d53 f23a
000002f0: 3b28 9abd a871 853d f012 103e dc55 3c3d
00000300: d88a 81bd 1246 d7bd e0f0 14bc e07f d93c
00000310: 5e9a 9a3d 8413 0a3d f068 7c3c 107a 413d
00000320: 32d2 ea3d 909d 823c 1cac 9c3d 003f fcba
00000330: 90b0 67bd 5ae4 f63d fc75 81bd 5c8e 8a3d
00000340: b8e8 fcbd 986b 98bd f2b9 ddbd f05d c6bc
00000350: d49c 96bd a2aa c53d 0840 d9bd d04d 2d3c
00000360: 9eed ed3d 88bf 4abd 6010 27bc 0055 173d
00000370: 80e6 013b d04d 883d 6eb5 fc3d 1600 cb3d
00000380: 7a77 f0bd c6bd f5bd 1027 edbd c0cb c63b
00000390: d8ae d1bd 0e6a 83bd dc14 ba3d 8063 eeba
000003a0: 5066 b3bd 5237 a43d 0283 c1bd d00d 5cbd
000003b0: 801b 42bd 3c28 b43d 4686 a5bd 80a3 86bb
000003c0: ec14 5e3d 5aa2 a1bd e052 893d 907e 67bd
000003d0: 18e7 9fbc 381a 813d a403 573d fc6b 043d
000003e0: eefd f4bd f8b7 7abd 3876 9d3d f6b5 863d
000003f0: b6b6 b2bd 4441 283d f4df 033d ba99 8cbd

hiddenlayers.2.bias f4 [64]
0.07612031 -0.08912596 -0.05147846 -0.014685854 -0.11410827 0.08723884 -0.07251843 -0.020321537
-0.0033358335 0.07717786 0.1342348 0.044674873 -0.04628226 0.0115855755 -0.052384675 0.047991276
-0.011508738 -0.06370404 0.061316863 -0.10151921 0.010362053 -0.04398496 -0.046527 0.08269629
-0.083202176 -0.043985333 0.019027062 -0.11844163 0.051089566 0.10801284 -0.110596016 0.05783148
-0.075678304 -0.010507539 0.15395802 0.08373379 0.06662469 -0.13517702 -0.010034174 0.06746546
-0.069257505 -0.102530755 -0.047678486 -0.004935041 0.10942196 -0.10555738 -0.05142227 0.03448907
0.057241395 -0.07723926 -0.11638975 -0.09135894 -0.08242698 0.15449576 -0.10986756 -0.043802828
0.089925975 0.06133408 0.011399169 0.05984135 -0.0195407 0.10279872 0.1395248 0.0046801497
00000000: f7e4 9b3d ac87 b6bd 14db 52bd f09c 70bc
00000010: 99b1 e9bd 47aa b23d 8b84 94bd 5a79 a6bc
00000020: 009e 5abb 6d0f 9e3d d974 093e 00fd 363d
00000030: 7892 3dbd 6dd1 3d3c 5091 56bd 8092 443d
00000040: 258f 3cbc 4477 82bd 6427 7b3d 4ee9 cfbd
00000050: 9ac5 293c 9329 34bd 1893 3ebd ac5c a93d
00000060: e765 aabd f729 34bd a4de 9b3c 8691 f2bd
00000070: 4b43 513d d635 dd3d 2a80 e2bd b4e0 6c3d
00000080: 3afd 9abd d027 2cbc 2ca7 1d3e 9f7c ab3d
00000090: 8772 883d d86b 0abe 6066 24bc 552b 8a3d
000000a0: e1d6 8dbd a5fb d1bd 844a 43bd 20b6 a1bb
000000b0: 9f18 e03d 782e d8bd 28a0 52bd 6944 0d3d
000000c0: f475 6a3d 9e2f 9ebd c05d eebd 651a bbbd
000000d0: 7acf a8bd 2334 1e3e 3e02 e1bd 986a 33bd
000000e0: 1c2b b83d 7239 7b3d 95c3 3a3c 341c 753d
000000f0: d113 a0bc 2388 d23d 97df 0e3e f15b 993b

hiddenlayers.4.weight f4 [1, 64]
0.08534766 0.11467324 0.1533513 0.06576221 -0.013068752 -0.03345944 0.15350074 -0.06652908
-0.01389429 -0.157596 0.16562429 -0.17467947 -0.087148055 0.102556214 0.11788025 0.019444644
-0.22093421 -0.100768 0.05457987 -0.028883338 -0.08568272 -0.05580494 -0.022429898 0.09894172
-0.020889848 0.06852425 0.14670967 -0.06253237 0.038743872 0.018525586 -0.10794872 0.0140904635
-0.07074861 -0.072705 0.0707467 0.17022587 0.055099454 -0.023839168 0.00020983815 -0.15488298
-0.07357782 0.10795512 -0.120970145 -0.09537634 -0.0020555004 -0.10570393 0.021469831 0.11774125
0.101708084 0.020665705 0.0413194 -0.23165123 0.16414884 0.10888895 0.11028883 -0.045575324
-0.010719683 0.04945761 -0.0011321538 -0.06523685 0.20807813 -0.15013042 0.14684506 0.14806318
00000000: c1ca ae3d ced9 ea3d 2008 1d3e 56ae 863d
00000010: 521e 56bc c40c 09bd 4c2f 1d3e 6640 88bd
00000020: e0a4 63bc d960 21be 6a99 293e 2ddf 32be
00000030: ae7a b2bd fe08 d23d 336b f13d 604a 9f3c
00000040: 943c 62be 745f cebd 248f 5f3d c09c ecbc
00000050: 6c7a afbd b993 64bd e8be b7bc f5a1 ca3d
00000060: 3021 abbc 7156 8c3d 0f3b 163e f910 80bd
00000070: e5b1 1e3d f8c2 973c 3814 ddbd b0db 663c
00000080: a6e4 90bd 5ce6 94bd a5e3 903d b14f 2e3e
00000090: f7af 613d 5c4a c3bc 0008 5c39 a599 1ebe
000000a0: f8af 96bd 9317 dd3d 32bf f7bd ac54 c3bd
000000b0: 93b5 06bb 4d7b d8bd 80e1 af3c 5322 f13d
000000c0: 544c d03d 204b a93c 883e 293d fb35 6dbe
000000d0: a216 283e 2b01 df3d 1cdf e13d 31ad 3abd
000000e0: 9ca1 2fbc 1094 4a3d c764 94ba e69a 85bd
000000f0: 6f12 553e cabb 19be 8d5e 163e e09d 173e
