backend/models/american_call.pt (torch, 21661 bytes, 5 tensors)

hiddenlayers.0.weight f4 [64, 5]
-0.31484914 -0.0043074484 0.2171489 -0.43539423 -0.008500098 0.341761 -0.12544706 -0.12715405
-0.26167834 -0.25651363 0.21867298 0.022423673 0.21031067 -0.17891507 -0.21261775 0.0024841267
-0.28296247 0.11832068 -0.26104173 -0.10106241 0.32000995 0.27359664 -0.06931088 -0.4367253
0.0835418 1.9798295 -0.124595955 -1.5214309 0.098420426 0.12662022 -0.18036777 -0.184217
0.30716997 -0.003061869 -0.16831659 0.08347739 0.0028028258 -0.2289904 0.019943064 -0.13100654
0.041749932 0.33986035 0.010632586 -0.42721814 0.16370703 -0.054451212 -0.34466645 -0.031115416
0.2060591 -0.016545506 0.24298891 -0.4049738 -1.5345274 -0.18406446 0.40906405 0.06731284
0.12534632 2.1274707 -0.021104647 0.26922932 1.0768145 -0.053764667 -3.28138 0.2355025
0.22127429 -0.3124504 0.38498884 0.22287494 -0.3579533 -0.12606606 -0.82800967 0.17544779
3.9117436 -0.25306517 -0.17522599 -0.3264801 0.046773694 0.99349374 0.052029993 0.36557502
0.6539065 -0.32777464 -0.45461506 -0.08026493 0.48169026 -1.5820212 0.40263653 3.3473103
0.32819858 -0.39435393 -0.6324889 0.44300288 1.4257642 -0.28354782 -0.053312402 0.22337458
-0.30947822 -0.4453401 0.064633995 -0.16491309 1.3387566 -0.04701344 -3.8972714 0.24201955
0.20434019 -0.1068805 0.35512066 -0.05130245 -0.27630866 0.0014747985 -1.1493784 0.25210026
3.254941 -0.29526487 -0.24640283 0.5288975 -0.017518025 -3.1374416 -0.20209791 0.24156746
-0.43774006 -0.06181736 0.20715076 -0.27065364 -0.39300102 -0.31490058 0.27634263 1.2714214
-0.34356067 0.36857626 -0.07534884 0.40634376 0.6710876 -0.09328584 -0.0037873809 -0.9790963
0.14052589 3.3814883 0.3802892 -0.14170195 0.76016176 -0.05892112 -2.4106843 0.4396597
0.2396873 0.4193885 -0.21072261 -0.12625484 -0.4260363 -0.31811064 -0.0695832 0.17145476
0.521253 -0.39505637 0.052023236 -0.5088595 0.3191254 1.526712 -0.10808373 -0.31155884
-0.23750402 0.4364965 1.5698218 -0.16219841 0.2097519 0.0072824303 0.35782856 1.6094742
-0.34168738 0.029897438 0.42494336 0.05450092 -1.1430852 -0.031077716 0.24160461 -0.85180986
0.20265664 3.5464299 0.2673087 -0.20449485 0.592695 -0.05025428 -2.9461486 -0.31941885
0.20095438 -0.874425 0.111035496 4.1174207 0.51054466 -0.11564415 0.62945896 -0.12223922
-1.4183239 -0.1052756 0.45256937 0.37395495 0.2246372 -2.29041 0.19137807 0.029628213
-0.405982 0.30452037 3.1013887 0.16807869 -0.21995182 0.11494884 0.16787584 0.5833096
0.27016723 0.27149624 0.20629017 0.09353473 -1.6494402 0.23369049 0.34277079 -0.77549165
0.08464611 3.40085 0.14301969 -0.083006635 -1.5768889 0.17160688 3.433197 0.6828978
-0.1669892 1.381137 -0.04463801 -4.185411 -0.3476227 0.20857847 0.36738753 0.13095313
-0.83348554 -0.044609945 0.30905 0.50832474 -0.21084282 -1.631925 -0.19095331 0.21491347
-0.3537481 0.4633111 0.46998057 0.45598578 0.17408639 0.02407738 -0.009797371 -1.3362136
0.4051869 0.23840271 0.007217434 -0.2864517 0.3845931 -0.27149814 -0.07369224 0.9835211
00000000: e833 a1be 7f25 8dbb 485c 5e3e feeb debe
00000010: ff43 0bbc 4cfb ae3e 3275 00be ac34 02be
00000020: b4fa 85be c155 83be cfeb 5f3e dab1 b73c
00000030: ae5b 573e 8335 37be 78b8 59be bbcc 223b
00000040: 75e0 90be 1d52 f23d 43a7 85be cff9 cebd
00000050: 58d8 a33e dc14 8c3e ddf2 8dbd 759a dfbe
00000060: f717 ab3d 0e6b fd3f 2a2c ffbd 3fbe c2bf
00000070: a690 c93d bba8 013e 54b2 38be 62a3 3cbe
00000080: 6245 9d3e a3a9 48bb 2f5b 2cbe 32f6 aa3d
00000090: 9daf 373b 767c 6abe a35f a33c 9426 06be
000000a0: fa01 2b3d 2d02 ae3e 4c34 2e3c 56bc dabe
000000b0: d1a2 273e 3c08 5fbd 1f78 b0be c2e5 febc
000000c0: 2801 533e 718a 87bc 16d2 783e ba58 cfbe
000000d0: 656b c4bf 657b 3cbe d870 d13e 50db 893d
000000e0: c95a 003e 7b28 0840 a7e3 acbc 6dd8 893e
000000f0: 0fd5 893f 5738 5cbd 2102 52c0 9127 713e
00000100: ba95 623e 80f9 9fbe 421d c53e 5439 643e
00000110: a845 b7be 7617 01be 71f8 53bf 96a8 333e
00000120: 025a 7a40 c291 81be 716e 33be 6628 a7be
00000130: c695 3f3d 9b55 7e3f 671d 553d a62c bb3e
00000140: 6b66 273f 14d2 a7be 4ec3 e8be f161 a4bd
00000150: 1ba0 f63e ac7f cabf 6026 ce3e 553a 5640
00000160: a509 a83e c2e8 c9be cbea 21bf 46d1 e23e
00000170: 717f b63f 2e2d 91be 1b5e 5abd 4ebc 643e
00000180: ee73 9ebe 9e03 e4be d45e 843d fade 28be
00000190: 605c ab3f 2a91 40bd e56c 79c0 f9d3 773e
000001a0: 8e3e 513e 2ae4 dabd 60d2 b53e 8522 52bd
000001b0: 5478 8dbe 074e c13a d51e 93bf 4913 813e
000001c0: f450 5040 f52c 97be 0651 7cbe d465 073f
000001d0: f681 8fbc d8cb 48c0 c1f2 4ebe 765d 773e
000001e0: 771f e0be 3334 7dbd 541f 543e 1d93 8abe
000001f0: 6e37 c9be a63a a1be c87c 8d3e f0bd a23f
00000200: 2fe7 afbe 07b6 bc3e 7e50 9abd 4a0c d03e
00000210: 66cc 2b3f a50c bfbd b535 78bb 0ea6 7abf
00000220: 05e6 0f3e 4e6a 5840 44b5 c23e 511a 11be
00000230: f699 423f 4657 71bd a748 1ac0 141b e13e
00000240: 9670 753e 17ba d63e abc7 57be f348 01be
00000250: 6e21 dabe 66df a2be a381 8ebd d691 2f3e
00000260: d670 053f d444 cabe 5116 553d 9e44 02bf
00000270: 6864 a33e 4c6b c33f 015b ddbd a484 9fbe
00000280: 4134 73be 787c df3e ecef c83f 5717 26be
00000290: 34c9 563e 74a1 ee3b 4e35 b73e 4003 ce3f
000002a0: a6f1 aebe 79eb f43c 2d92 d93e 5b3c 5f3d
000002b0: 9e50 92bf b296 febc 3367 773e 3610 5abf
000002c0: 3985 4f3e b5f8 6240 b0dc 883e 1967 51be
000002d0: dcba 173f 6fd7 4dbd b38d 3cc0 de8a a3be
000002e0: fcc6 4d3e 51da 5fbf 9466 e33d e9c1 8340
000002f0: 0eb3 023f d7d6 ecbd 3924 213f 8e58 fabd
00000300: a38b b5bf bc9a d7bd 2cb7 e73e 0677 bf3e
00000310: 4b07 663e 1496 12c0 9df8 433e deb6 f23c
00000320: dfdc cfbe 18ea 9b3e 277d 4640 d21c 2c3e
00000330: 0d3b 61be 4c6a eb3d a5e7 2b3e c753 153f
00000340: 5c53 8a3e 8e01 8b3e bb3d 533e 238f bf3d
00000350: db20 d3bf 8f4c 6f3e a77f af3e 9f86 46bf
00000360: f15a ad3d 87a7 5940 c173 123e 62ff a9bd
00000370: 7fd7 c9bf b7b9 2f3e 80b9 5b40 64d2 2e3f
00000380: 38ff 2abe 19c9 b03f 59d6 36bd e3ee 85c0
00000390: 9afb b1be 9895 553e 381a bc3e 9418 063e
000003a0: 4f5f 55bf ebb8 36bd cd3b 9e3e 9221 023f
000003b0: 2ee7 57be ebe2 d0bf 4489 43be 4712 5c3e
000003c0: 791e b5be 1d37 ed3e 4ba1 f03e f876 e93e
000003d0: b443 323e ed3d c53c 2785 20bc 0c09 abbf
000003e0: a874 cf3e d71f 743e 3980 ec3b cca9 92be
000003f0: 63e9 c43e ce01 8bbe f5eb 96bd 0ac8 7b3f

hiddenlayers.0.bias f4 [64]
0.1285342 -0.37128645 -0.42342725 0.1416037 0.29046223 -0.49460217 0.1320891 0.20204929
-0.16976416 0.31757233 -0.7362251 0.08210019 0.039837863 0.41166732 0.7355436 -0.056670878
-0.07944299 0.3146844 0.23434559 -0.14593956 -0.5105452 0.20919767 0.51565313 -0.39105633
0.12865852 -0.13296124 0.25400507 0.84151816 -0.22165881 -0.07470559 -0.11670794 -0.10970456
0.27921283 -0.17912704 -0.33838502 0.8624745 -0.6073067 1.0804927 -0.17235672 -0.35111377
0.49164885 0.094393566 -0.18926585 0.17044044 0.48292106 -0.33673435 -0.29297608 -0.8801332
-0.27348143 0.31392282 0.109605074 -0.6837469 -0.5932359 -0.17526159 -0.21927118 -0.42314383
0.1042472 0.33342698 0.5765703 -0.24552113 0.18552506 0.15457973 -0.025854334 -0.14518389
00000000: 789e 033e 4219 bebe 75cb d8be 8f00 113e
00000010: 77b7 943e 7f3c fdbe 5d42 073e 02e6 4e3e
00000020: a8d6 2dbe d798 a23e 4079 3cbf 2524 a83d
00000030: 072d 233d 0fc6 d23e 964c 3c3f b91f 68bd
00000040: 02b3 a2bd 501e a13e 4af8 6f3e 2e71 15be
00000050: 17b3 02bf ea37 563e d801 043f 8938 c8be
00000060: 0fbf 033e fe26 08be f40c 823e bc6d 573f
00000070: 87fa 62be 3fff 98bd 9304 efbd c9ac e0bd
00000080: fcf4 8e3e 146d 37be cd40 adbe 21cb 5c3f
00000090: 7478 1bbf 964d 8a3f 487e 30be 2fc5 b3be
000000a0: 66b9 fb3e 6a51 c13d e8ce 41be f087 2e3e
000000b0: 6e41 f73e 7268 acbe f600 96be 6950 61bf
000000c0: c205 8cbe 7eba a03e a078 e03d 090a 2fbf
000000d0: 4fde 17bf c677 33be a088 60be 4fa6 d8be
000000e0: 8e7f d53d f1b6 aa3e 1c9a 133f e469 7bbe
000000f0: 48fa 3d3e 264a 1e3e 78cc d3bc 16ab 14be

hiddenlayers.2.weight f4 [64, 64]
0.08794599 0.048355177 0.037232935 0.0045327544 -0.06131463 0.12858462 -0.10804938 0.045625716
-0.044451315 0.06342474 0.028164051 0.075155884 -0.007048367 -0.065965 0.06660437 -0.023209631
0.044172253 0.041319788 0.14405373 0.055459157 -0.0047240793 -0.084760174 0.12689738 0.052344304
0.10259578 0.07666175 0.07848068 0.21006225 -0.11418252 0.034347996 0.037300963 0.08898182
0.023670001 -0.09704226 0.10633357 0.14795874 0.09327355 0.13407364 0.07678896 -0.00061692507
0.12784271 0.10344009 0.09259317 0.017759701 0.11107328 -0.018858574 -0.0065970174 0.18460418
0.114063725 -0.10036937 0.11910476 -0.09035271 0.11737135 0.12975013 0.072143756 -0.06890261
-0.080091044 0.012293026 0.18311813 -0.024923848 -0.13257183 0.049454555 0.05302133 -0.03995275
-0.09840431 0.03932871 -0.043456987 -0.05792889 0.014979795 0.04715718 -0.054289892 0.05564922
0.07287489 -0.093835026 0.12724978 0.015463771 -0.08510395 0.08868881 0.07725141 0.04376489
-0.100342184 0.0831924 0.076783165 0.113377765 -0.025850102 0.00895996 0.0025149274 -0.11514192
-0.04314199 -0.040059518 0.029046142 -0.049699344 -0.10042475 -0.027848214 0.024502888 -0.13180684
-0.06978567 -0.06780391 -0.019089192 0.092500985 0.12660623 -0.023008386 -0.11926055 0.08652804
-0.14129989 0.08462894 -0.06443657 0.05504322 0.0043133926 0.06479662 -0.0556139 0.045585733
0.058642976 -0.057455577 0.05000162 0.012768699 0.1291002 -0.02245697 0.07167989 -0.0011414227
-0.08451485 -0.07923907 -0.028070757 -0.017007511 0.084720485 -0.05281395 -0.08696249 -0.07864293
-0.04705839 0.08140375 -0.10022175 0.08943999 0.10429226 -0.08904955 0.12386961 0.096152276
-0.022455275 -0.038790256 0.0953099 0.029661983 -0.06910917 -0.08333632 -0.112253115 -0.11657326
0.0699411 0.09651898 -0.10937299 0.09228657 0.05479987 0.03828004 -0.07207839 -0.0579717
-0.018451944 -0.12011531 -0.044252485 -0.016386658 0.118282735 -0.0332627 -0.092619404 0.0847248
-0.047903225 -0.0995609 0.07916254 -0.098092034 -0.0060128868 -0.04063213 -0.10243575 0.024902001
-0.04791461 -0.10691798 0.029726073 0.007581845 -0.012709826 -0.113816485 -0.065339535 0.023175687
-0.04363671 0.077948526 -0.0051808655 0.1091928 -0.03599085 0.09139547 -0.054762036 0.08512302
0.08338027 -2.9981136e-05 -0.0007842183 -0.043511167 -0.07406804 -0.09882781 0.03226906 0.12444045
0.035367716 0.1015576 0.02069956 -0.0826861 -0.11020083 0.05949746 0.015237495 0.027835712
-0.121875465 -0.010054362 0.021194465 0.06704132 -0.013130314 0.07394518 0.058534995 0.05373448
-0.10746717 -0.036760617 -0.1365898 -0.01359424 0.0075619323 0.10456348 0.10468814 0.06820457
-0.03577864 -0.06579059 -0.03898799 -0.045110747 -0.13146214 -0.09439798 0.050419293 -0.10988896
0.079811744 -0.11816429 0.01710915 -0.09376742 -0.13437106 -0.09416962 0.07961521 -0.11560973
-0.110177085 0.028978808 -0.053059455 0.05163989 0.12453146 0.05560946 -0.06624078 0.04223239
-0.003185256 -0.10528131 0.007321909 0.03219597 -0.13200618 0.084287174 0.088130504 -0.014235958
-0.053071823 0.07877424 -0.07312884 -0.10231038 0.087342806 -0.07419461 -0.022682121 -0.11172685
00000000: 071d b43d 1410 463d 9081 183d 8087 943b
00000010: 0d25 7bbd b0ab 033e fe48 ddbd 08e2 3a3d
00000020: 9512 36bd d5e4 813d 4cb8 e63c 54eb 993d
00000030: fdf5 e6bb a818 87bd df67 883d 2022 bebc
00000040: f7ed 343d f03e 293d d282 133e 2429 633d
00000050: 73cc 9abb be96 adbd 63f1 013e fb66 563d
00000060: bc1d d23d d600 9d3d 7bba a03d 8f1a 573e
00000070: 86d8 e9bd 7cb0 0c3d e5c8 183d 1a3c b63d
00000080: 97e7 c13c 18be c6bd 6ac5 d93d 7f82 173e
00000090: 3406 bf3d 9a4a 093e 8843 9d3d 24b9 21ba
000000a0: 33e9 023e 66d8 d33d 7da1 bd3d cb7c 913c
000000b0: 637a e33d 4c7d 9abc cb2b d8bb e108 3d3e
000000c0: 3e9a e93d 758e cdbd 32ed f33d d70a b9bd
000000d0: 6460 f03d 38dd 043e 1bc0 933d d01c 8dbd
000000e0: c606 a4bd b068 493c 5283 3b3e 192d ccbc
000000f0: e9c0 07be dc90 4a3d e52c 593d 7fa5 23bd
00000100: 3388 c9bd 2417 213d f4ff 31bd d846 6dbd
00000110: d06d 753c e327 413d 145f 5ebd 70f0 633d
00000120: 6e3f 953d 942c c0bd c44d 023e c25b 7d3c
00000130: fb4a aebd 7ba2 b53d fd35 9e3d d042 333d
00000140: 3480 cdbd c760 aa3d 7e40 9d3d 9a32 e83d
00000150: 98c3 d3bc cccc 123c 7bd1 243b 87cf ebbd
00000160: a8b5 30bd 7315 24bd 2df2 ed3c 8a91 4bbd
00000170: 7eab cdbd f021 e4bc 48ba c83c 5ff8 06be
00000180: caeb 8ebd c7dc 8abd f060 9cbc 2871 bd3d
00000190: 10a5 013e 157c bcbc e03e f4bd 9d35 b13d
000001a0: ebb0 10be f051 ad3d 52f7 83bd 0075 613d
000001b0: 5c57 8d3b 17b4 843d 67cb 63bd 1bb8 3a3d
000001c0: 9e33 703d 8a56 6bbd 80ce 4c3d ce33 513c
000001d0: d832 043e aef7 b7bc e8cc 923d ca9b 95ba
000001e0: 1f16 adbd 1848 a2bd a5f4 e5bc 5653 8bbc
000001f0: ef81 ad3d 7153 58bd 6419 b2bd 8b0f a1bd
00000200: 4cc0 40bd 02b7 a63d 1041 cdbd 502c b73d
00000210: 2e97 d53d 9c5f b6bd 5aaf fd3d 7ceb c43d
00000220: 20f4 b7bc 88e2 1ebd d631 c33d b0fd f23c
00000230: 1c89 8dbd 3cac aabd f6e4 e5bd f6bd eebd
00000240: 483d 8f3d beab c53d f2fe dfbd be00 bd3d
00000250: d475 603d 88cb 1c3d d69d 93bd bc73 6dbd
00000260: 8828 97bc 04ff f5bd 1842 35bd 503d 86bc
00000270: 383e f23d 783e 08bd 3eaf bdbd 3284 ad3d
00000280: 2c36 44bd 96e6 cbbd f81f a23d 7ae4 c8bd
00000290: c007 c5bb e06d 26bd d6c9 d1bd 48ff cb3c
000002a0: 1c42 44bd d0f7 dabd 1884 f33c 2071 f83b
000002b0: e03c 50bc 9e18 e9bd bcd0 85bd f0da bd3c
000002c0: 68bc 32bd 7aa3 9f3d 40c4 a9bb 7aa0 df3d
000002d0: 246b 13bd 8c2d bb3d 284e 60bd fa54 ae3d
000002e0: 46c3 aa3d 0080 fbb7 0094 4dba c438 32bd
000002f0: fcb0 97bd 3c66 cabd 902c 043d a2da fe3d
00000300: bddd 103d 6efd cf3d 2092 a93c 5457 a9bd
00000310: f9b0 e1bd 9cb3 733d b0a6 793c b807 e43c
00000320: d899 f9bd 0dbb 24bc 04a0 ad3c f64c 893d
00000330: 8720 57bc 9270 973d 64c2 6f3d b018 5c3d
00000340: bf17 dcbd 4d92 16bd 32de 0bbe 60ba 5ebc
00000350: 16ca f73b 6125 d63d bc66 d63d d6ae 8b3d
00000360: a08c 12bd 38bd 86bd dfb1 1fbd 0cc6 38bd
00000370: 039e 06be ba53 c1bd 7684 4e3d 770d e1bd
00000380: 5774 a33d 1f00 f2bd 7d28 8c3c 2209 c0bd
00000390: 9198 09be 00dc c0bd 4d0d a33d cbc4 ecbd
000003a0: 86a4 e1bd f764 ed3c df54 59bd 5984 533d
000003b0: 5a0a ff3d bfc6 633d 3fa9 87bd dffb 2c3d
000003c0: babf 50bb ba9d d7bd a0ec ef3b ecdf 033d
000003d0: a12c 07be c19e ac3d c47d b43d f03d 69bc
000003e0: d761 59bd 6454 a13d 93c4 95bd 1b88 d1bd
000003f0: c9e0 b23d 58f3 97bd dbcf b9bc 0cd1 e4bd

hiddenlayers.2.bias f4 [64]
0.14352416 -0.11547132 0.11188306 -0.060779057 -0.012241049 -0.09637412 0.10537677 -0.09389449
0.094133444 -0.015884861 -0.04497929 -0.060444746 -0.052112207 -0.00017662346 0.17282243 -0.33232266
0.015526131 0.061314102 0.09077464 0.06636725 0.073192455 0.0002972082 -0.06462216 -0.10331018
0.07250707 0.15215647 0.038679883 0.1530321 0.15938897 -0.040617995 -0.07190016 -0.069991425
-0.08806355 -0.0733984 -0.08429988 -0.0012379885 0.09063324 -0.09816232 0.037548654 -0.06236931
-0.100831136 0.0890293 -0.22868197 0.053275097 -0.07847233 -0.09629907 -0.018823817 0.069703996
-0.12113158 -0.006219968 0.15764566 0.091597505 -0.05255679 -0.081706405 0.11897537 -0.020360887
0.0046064337 -0.024755033 -0.059899908 0.04202628 0.28344387 0.18267058 0.10048839 0.12614399
00000000: fff7 123e 3a7c ecbd f222 e53d 76f3 78bd
00000010: ae8e 48bc cb5f c5bd c7cf d73d c14b c0bd
00000020: 09c9 c03d f820 82bc 343c 38bd e994 77bd
00000030: 9c73 55bd 0034 39b9 5df8 303e 3226 aabe
00000040: 5061 7e3c 7f24 7b3d 0ee8 b93d 8eeb 873d
00000050: ede5 953d 9cd2 9b39 9f58 84bd 4a94 d3bd
00000060: 967e 943d e8ce 1b3e cc6e 1e3d 72b4 1c3e
00000070: dd36 233e 0e5f 26bd 6440 93bd aa57 8fbd
00000080: aa5a b4bd e651 96bd 6aa5 acbd 0044 a2ba
00000090: ec9d b93d 5409 c9bd 9ecc 193d f676 7fbd
000000a0: 8e80 cebd fe54 b63d 9b2b 6abe fd36 5a3d
000000b0: 1ab6 a0bd 7238 c5bd 6834 9abc f8c0 8e3d
000000c0: d513 f8bd e0d0 cbbb dd6d 213e 7997 bb3d
000000d0: ca45 57bd b055 a7bd 5ca9 f33d e0cb a6bc
000000e0: 91f1 963b 11cb cabc 9b59 75bd c023 2c3d
000000f0: 8e1f 913e ff0d 3b3e dbcc cd3d e42b 013e

hiddenlayers.4.weight f4 [1, 64]
0.093958996 -0.08316426 0.07783301 0.055461258 0.031983692 -0.045265548 0.16518332 -0.17405266
0.07841282 0.102663144 -0.025895163 -0.04097837 -0.09170562 0.018691808 0.14054887 -0.12794466
-0.07976028 0.13152795 -0.028501218 -0.09512149 -0.01658747 -0.092153735 0.0021706265 0.016791431
0.15951993 0.07468933 0.11691159 0.13683501 0.07083411 0.13172522 0.08510993 0.0621206
0.03193392 -0.20726809 0.07664499 -0.012357354 -0.08419083 -0.05073771 0.16201265 -0.07514768
-0.0053233956 -0.06251301 -0.20046863 -0.039959043 0.109364554 0.11209808 -0.04664129 0.008396083
-0.057814613 0.090367034 0.09878799 0.07361277 -0.0365362 -0.10629018 0.0025087893 0.07759097
-0.078713186 0.16459338 -0.06626845 -0.05928661 0.04420441 0.10164433 0.005173261 0.14908351
00000000: 936d c03d 0652 aabd ea66 9f3d 582b 633d
00000010: 5501 033d 5e68 39bd d125 293e dc3a 32be
00000020: e796 a03d 0e41 d23d 1822 d4bc efd8 27bd
00000030: 28d0 bbbd 901f 993c 0bec 0f3e ed03 03be
00000040: 5c59 a3bd 43af 063e 637b e9bc 0ecf c2bd
00000050: 72e2 87bc 19bb bcbd 1241 0e3b 2f8e 893c
00000060: 3159 233e b8f6 983d 586f ef3d 7a1e 0c3e
00000070: 7911 913d fae2 063e 1d4e ae3d 2c72 7e3d
00000080: 24cd 023d 163e 54be 0cf8 9c3d 8076 4abc
00000090: 3e6c acbd 58d2 4fbd a5e6 253e 07e7 99bd
000000a0: e16f aebb d206 80bd a647 4dbe 18ac 23bd
000000b0: 86fa df3d ae93 e53d f00a 3fbd b98f 093c
000000c0: 04cf 6cbd 5a12 b93d 5c51 ca3d 4bc2 963d
000000d0: fca6 15bd aaae d9bd 806a 243b 04e8 9e3d
000000e0: 6134 a1bd 2b8b 283e c1b7 87bd 84d6 72bd
000000f0: af0f 353d e72a d03d 7584 a93b 59a9 183e
