backend/models/american_put.pt (torch, 21649 bytes, 5 tensors)

hiddenlayers.0.weight f4 [64, 5]
00000000: 50b3 d7be e9ff f0bd 4885 c63e c1cf 3d3e
00000010: f70f f7bc 0848 293f 78b0 ba3e 0c78 1fbf
00000020: 0240 123d a34f 2e3e a194 643f eaf4 54be
00000030: c394 04c0 4b86 b73e 0bed 513e e715 40bf
00000040: 2249 e93e 4127 0c40 3c86 35bd 5405 7d3d
00000050: 882c 543e 2d36 f13e 2324 133c ffa1 c73e
00000060: f435 e1bd b279 883d b302 6dbe 4f89 913e
00000070: 1398 86bd 4004 22be a96d 853f 4b9d 653e
00000080: dc94 01c0 4165 e03e ef41 ba3e e894 98bd
00000090: 8008 b23e e589 923e 6f12 74be c6ae 8abe
000000a0: 23f5 ae3f 1187 f83e c093 06bf 2387 0d3f
000000b0: 9c34 21bd 3c82 4c3d a0e9 f3bc 2531 8cbe
000000c0: 5eeb 173c c21f 38bc 7a10 74be 4e10 63be
000000d0: 9607 b63e 6bc5 1a3e faeb 13bd f947 a93f
000000e0: 14b7 94be 25f0 37c0 a711 863e 3879 903e
000000f0: 6952 4e3f d11c c7be 856f cdbf 60a4 e43d
00000100: ee90 c43d 5568 12bf 8746 983e 968c 5040
00000110: ebac ef3e 92da 203c bb32 43bf 2310 b03e
00000120: b2c0 8b3e 58ab 7bbc f74a b0be ffce 4abe
00000130: 9f0d bd3d df3d 123e 6630 d03e b93b c6be
00000140: 6c81 9d3d 2367 e1be 85f4 bb3d 8f5a ce3e
00000150: 35b8 c8be 8ebd 963f 42ba d9be 86c9 1dc0
00000160: 96c7 f7be 45fa d83e aafe 03be 5388 95be
00000170: 814c cc3e 4547 cc3e fde6 b5be 6e1b 67bd
00000180: 65d1 753e d4a9 203f 9b9a f13d 708b 7d3d
00000190: 26d5 253f 4e92 8abe 36fa 1bc0 50a1 a03b
000001a0: 0d6a 8c3e f5fd 7a3e c705 b3bd 576f 2e3d
000001b0: 0148 4f3e 3b76 ddbe c9fb 0dbf a06e d33e
000001c0: a403 bf3f 15d0 2e3e 4f4e b23d d89c 85be
000001d0: 1926 ba3d 879f a53d 1a8f 9bbe 5841 ccbe
000001e0: bcdd 893e 9c8a 29be 64ef cabe d296 d5bd
000001f0: c204 e4be fabb ee3f 24c0 c2be fc55 34c0
00000200: f417 61be 00ff 953d 52c7 543e 8a9d 603e
00000210: 7e2e 79bf ff89 da3e f653 b23e ef75 cfbe
00000220: 51b4 a63e 5514 f2bc efb0 663e 3fdf 1b3e
00000230: 06f4 073f 2817 9d3e 7313 54bf 7753 eb3e
00000240: 276b 743e ba37 f53e 0579 5abe 0b89 ecbf
00000250: 89e8 e0bd 39c2 5d3e 7b5c 133c fb75 66bd
00000260: f477 923e 10e0 de3e 60e4 57be 42ac 333f
00000270: beb1 7fbd 859f babf 77a8 a4bd 049d 7d3e
00000280: 0614 403f 80c3 87be 5798 efbf 3e94 51be
00000290: 372f 883e c4d0 953d 607a b63e 35bd c13e
000002a0: dcc0 bb3d 1832 9cbe d675 9b3e ff24 41bd
000002b0: 4efc de3e ec7d d03e 0e55 46bd fc97 1e3f
000002c0: 2d51 8b3e c0d6 3dbf 50a5 a3bc 615b c7bc
000002d0: a71f d53e e6bc bbbd bf10 93be e6f1 8fbe
000002e0: caaa 83be 2d73 33be cff7 adbe 8319 d9be
000002f0: 1425 8fbe 5bb1 adbe fa19 803f 4ca2 8cbe
00000300: 6ca8 aebf 868e c6bc 952c 8b3e f31a c13e
00000310: 9b81 4b3e 2603 fabe 39e0 323e 19f3 883d
00000320: 9287 783f 4200 d63e f9b8 40bf bd15 d03d
00000330: 4d66 cabd 5025 983e a088 f13e 29aa 30be
00000340: 6752 c33e 14a9 11be 2752 d0be 3170 ae3e
00000350: 69af 3e3f 09fc 2d3f 8d49 afbe d0e6 bbbf
00000360: 318c 113e cd5c 4f40 488f 81be fef6 723d
00000370: fac2 e23e 3860 7cbe 80fa e4bf ec13 a1be
00000380: 4a11 e13e e6d9 07be fb02 823e 202d 053f
00000390: 3a59 b33d 81ac 603e f467 af3e 2f8c aebd
000003a0: c048 a9be 7fca 7f3e a885 2dbe 49b4 96be
000003b0: f418 42bd 176f 103e 113b 1dbd 9d4f 9ebd
000003c0: 15e8 df3f 8336 753e 78c7 2ebf 735a 8cbd
000003d0: 20b3 abbc 8be4 1a3e 9e32 3ebe c4d0 dd3e
000003e0: 5a64 713e 206b 9fbe 314f 593f 0a4e 99be
000003f0: b11c f7bf 571f f93d f702 ac3e 89c7 e03f
-0.42128992 -0.11767561 0.3877356 0.18536283 -0.03015898 0.66125536 0.3646276 -0.6229255
0.035705574 0.17022566 0.8928929 -0.20796552 -2.0715797 0.35844645 0.20500581 -0.7503342
0.45563608 2.1898959 -0.04431747 0.06177266 0.20720112 0.47111645 0.008980784 0.3899078
-0.10996619 0.066638365 -0.23145561 0.2842507 -0.065719746 -0.15821934 1.0424091 0.22423284
-2.0247107 0.4382725 0.36378428 -0.074502766 0.3477211 0.2862083 -0.23835157 -0.27086467
1.366856 0.48540547 -0.525692 0.5528433 -0.039356813 0.04992889 -0.029774487 -0.27381244
0.0092724245 -0.01123804 -0.2383441 -0.22174188 0.35552663 0.15114371 -0.036113717 1.3225089
-0.29045928 -2.8740323 0.26185343 0.28217483 0.805945 -0.38889173 -1.6049658 0.111641645
0.09597956 -0.5719045 0.29741308 3.2585807 0.46811613 0.009817736 -0.76249284 0.3438731
0.27295452 -0.015360676 -0.34432194 -0.19805525 0.09231114 0.14281414 0.40661925 -0.3871744
0.07690701 -0.44024 0.09177498 0.40303466 -0.3920304 1.1776597 -0.42524916 -2.465425
-0.4839446 0.4237844 -0.12890115 -0.2920557 0.39902118 0.39898124 -0.35527793 -0.056422643
0.24005659 0.6275914 0.11797067 0.061900556 0.64778364 -0.27064747 -2.4371467 0.0049020424
0.2742466 0.2451094 -0.08741336 0.04258665 0.20242311 -0.43254265 -0.5546232 0.41295338
1.4922986 0.17071564 0.087063424 -0.26096225 0.09089298 0.08087068 -0.30382615 -0.39893603
0.26926982 -0.16556782 -0.39635766 -0.10429157 -0.4453488 1.8651116 -0.38037217 -2.817748
-0.21981794 0.07324028 0.2077916 0.21935096 -0.97336566 0.42683408 0.34829682 -0.40519664
0.32559446 -0.02955071 0.22528432 0.1522188 0.53106725 0.3068173 -0.8284218 0.45962116
0.23869 0.47894078 -0.21335228 -1.8479322 -0.109818526 0.21656121 0.008994217 -0.05626486
0.28607142 0.4353032 -0.21083212 0.7018472 -0.062425368 -1.4579931 -0.080399446 0.24766928
0.75030553 -0.26516342 -1.8718365 -0.20466706 0.26598522 0.073152095 0.3564024 0.37839666
0.091676444 -0.30506968 0.3036334 -0.047154423 0.43551868 0.4072107 -0.04842096 0.6195066
0.2721037 -0.7415581 -0.019976288 -0.024335565 0.4162571 -0.09166889 -0.28723714 -0.2811424
-0.2571624 -0.17524405 -0.33978125 -0.42402276 -0.27957976 -0.33924374 1.0007927 -0.27467573
-1.3645148 -0.024237882 0.2718245 0.37715873 0.1987366 -0.48830527 0.17468347 0.06686992
0.97081864 0.41797072 -0.75282246 0.10160396 -0.098827936 0.29715967 0.4717455 -0.17252411
0.38148805 -0.14224654 -0.40687677 0.3406997 0.74486405 0.679627 -0.34235802 -1.4679813
0.14213635 3.240039 -0.25304627 0.05931758 0.4428938 -0.2464608 -1.7888947 -0.31460512
0.43958503 -0.13266715 0.253929 0.5202198 0.08757253 0.21940805 0.34258997 -0.08522832
-0.33063316 0.2497959 -0.16945517 -0.29434422 -0.04738708 0.14104877 -0.03838641 -0.07730029
1.7492701 0.23946576 -0.68273115 -0.06853189 -0.020959437 0.15126245 -0.18573996 0.43323338
0.23573437 -0.31136417 0.8488646 -0.29942352 -1.9305631 0.12164181 0.33596012 1.7560893

hiddenlayers.0.bias f4 [64]
00000000: 113a bf3d c22e 62be 2eca 07bf 6eb2 d03c
00000010: cc3a bc3e ba9f 82be d8e7 73be 36ac ea3e
00000020: 3f3b 653e b96d 733e 4dc2 d7be db28 2ebe
00000030: aa47 6cbd 970e 423f b4ce f33e 5ef6 8ebd
00000040: 0307 b6bd 9f85 6b3c 0121 b33e 022e 9b3e
00000050: f255 10bf 8625 9cbe f317 debd 1a20 b43d
00000060: 55b8 b83e c57f 133e b3b8 56be 8238 c0be
00000070: 415a 9b3e fc8c 2cbe e70a 873e 8e6c b13c
00000080: 01ea 86be 6d55 ae3e a588 e43e e961 113f
00000090: a32a 1f3e b972 91be e375 da3d 4691 87be
000000a0: 8e00 ef3c 2676 ff3e 48b2 80bd 4468 213f
000000b0: 4efa b9be 439b dbbc ecf2 dfbe c8a5 dcbe
000000c0: 59da 183f 16bc 59be 5f58 0fbe 8380 f9be
000000d0: e9d9 053f 4734 0c3f c2e1 24be 18fe 91be
000000e0: 922c 9dbc 9ea0 c13e e366 5dbc 18d8 46bf
000000f0: 3fe0 1e3f 08d5 8a3e 4dfd 643e 1401 3f3e
0.09337247 -0.22088149 -0.53042877 0.025475707 0.36763608 -0.25512487 -0.2381891 0.45834512
0.22385882 0.23772325 -0.42140427 -0.17007773 -0.05768553 0.7580351 0.4761864 -0.069805846
-0.08888056 0.0143751195 0.34986117 0.3030854 -0.5638114 -0.30497378 -0.10844412 0.087951854
0.36078134 0.14404209 -0.20968895 -0.37543112 0.30342296 -0.16850656 0.26375505 0.021658208
-0.26350406 0.3404955 0.44635502 0.56790024 0.15543608 -0.2840784 0.10667016 -0.26478022
0.02917507 0.49894828 -0.062840044 0.6304972 -0.3632378 -0.026807433 -0.43740022 -0.4309523
0.5970817 -0.21263155 -0.13998555 -0.4873086 0.5228563 0.5476727 -0.16101745 -0.2851417
-0.019186292 0.37817854 -0.0135133 -0.7767348 0.6206092 0.27115655 0.22362252 0.18652755

hiddenlayers.2.weight f4 [64, 64]
00000000: e4a1 ecbd e2e0 1a3e d3b5 193d 09c3 05be
00000010: b962 be3d 825e cfbd 5750 173e c75d 953d
00000020: e752 aabd c116 c0bd c4ee 493d cb53 7dbc
00000030: 11c5 1b3d 83d4 a6bd 3d01 89bc 28d2 853c
00000040: 1448 03bd 55f5 50bc e0cb f33d 8d4d 8e3d
00000050: d7a0 e5bb ec89 c43d 475a 1b3d 4cb0 bcbd
00000060: b0e2 a93d 75f5 023d 079f af3c c366 153d
00000070: 6e43 ac3c 1446 4d3d 886d 8bbd 05f4 f23d
00000080: e6a8 1c3d ea07 31bd 146e 5bbd f1bc fcbd
00000090: 2855 ea3d f41d 14bd 6c21 dfbb 0717 4a3d
000000a0: f171 b53d 7c0a a33d 3a35 8db9 60d8 87bd
000000b0: c664 9e3d ea14 ab3d aeed a8bd c86f 583d
000000c0: 3b4c 4bbd 14a9 14bd de39 abbc 4bc2 5c3d
000000d0: c5d2 d73d 81c0 ab3d 1fd6 4e3d 00f8 a9b9
000000e0: ccb0 c43d 42e1 a6bc bbcb 993d f39e 263e
000000f0: 1aee 88bc a3fd 103e 7631 f73d 000b 5dbd
00000100: 98d1 76bd 4433 37bd 9466 7cbd e6e7 f9bd
00000110: 7029 df3c feac b5bd 8e64 8fbd a021 273d
00000120: 426b c93d 4e21 ec3d 2059 fcbb 70ee 8b3d
00000130: a25e c33d fc8d 99bd 78e0 e23d 3873 b8bc
00000140: d61a a43d c0d4 39bd dc62 183d e063 adbb
00000150: 60a7 6e3d 20c7 9c3d 30c1 923d e00e 3dbc
00000160: 8081 33bb 0e84 863d 72cd c7bd 007a 503b
00000170: 2c9a 89bd 605b 8fbc 5e99 9a3d 8c1d 39bd
00000180: 248f e93d 30a4 97bd 1c94 103d 907b ebbd
00000190: b025 acbd f041 b73c 608c fcbc 3c73 763d
000001a0: d02e 483c cc26 35bd 0071 e5ba 203d ab3c
000001b0: 10df b3bc 6037 1a3d e6bc e63d 1ad8 a0bd
000001c0: 9edc d3bd 50bc f93d 9412 653d e087 eebb
000001d0: 68c2 503d 3877 983c f0ef 273c 288f 83bc
000001e0: b42f 1b3d 5e30 993d d4ec ffbd 1cf5 dbbd
000001f0: 38a5 713d 909c 643c aefe 8a3d fe74 b53d
00000200: 92c7 d63d 479c fc3c 5282 ef3d cef2 8fbd
00000210: e84b edbd 86e6 cc3d ff67 053e 0f8f c03b
00000220: 9899 833d 74b1 abbd 58ad e33d ce0c 52bd
00000230: 3f68 64bd 3ab5 593d 1b24 fb3d 68e3 7fbd
00000240: 4034 f8bc 7e53 a3bd e4c2 24bd 3ea3 133e
00000250: 5609 f43d e8b4 c5bd ceee c5bd 1599 c33d
00000260: 6c1b 18bd 50c7 213e 4fe4 da3b 19d6 91bd
00000270: 9ac7 ff3d 0a68 293e 1c18 053d 33d3 ccbc
00000280: 49cc 163e a69b bb3d c08b 993c 9c3d 36bd
00000290: ea1e d53d 20cc 37bd 11fb 1b3e fc70 9f3d
000002a0: 6294 703d 22fb 853d b41f 90bd b2e4 ca3c
000002b0: 007a b13d af7f 69bc a856 bcbc 0099 523d
000002c0: f754 0e3d 50f6 623c 0394 403d 02c2 92bd
000002d0: 2c8c 9cbd 6aa0 a03d 2fb5 0b3e d445 f73d
000002e0: 4fa1 adbd 82e6 18be 636c fbbc 9252 743d
000002f0: f4db 713b b8d5 763c 90b1 433c 1964 223e
00000300: 9034 203c 20c8 d9bd 10ca d2bd 98a6 96bd
00000310: 3a8b e03d 7c05 16bd 7a12 e4bd d436 bf3d
00000320: 6865 f6bc 28b6 863c c040 883b c83b c13c
00000330: 2088 433c 8ebb e93d e401 9bbd d47c 3abd
00000340: 1026 1b3d 8000 013d 9c7d 7fbd 7c4e 433d
00000350: b656 e4bd c034 a43d 94cc 2ebd 340a 09bd
00000360: fac4 803d b2de f3bd e6b3 df3d dc03 453d
00000370: 0075 69ba 40ae 30bb 204f 50bc 6480 06bd
00000380: d4d0 9fbd 003d a3bc 1095 59bc 04c4 7bbd
00000390: 84d6 f83d 9835 f7bd ac3d b83d 3c27 15bd
000003a0: b8fa d9bc c623 81bd 3e29 a93d b0e8 85bc
000003b0: 7e05 8a3d c412 2ebd 7694 fbbd d2e7 bebd
000003c0: 6c45 093d fa13 a7bd e04e b4bd dc44 6dbd
000003d0: ec7f 823d ca54 c8bd 80b5 b33c f236 863d
000003e0: a860 fbbd 8c76 d93d 5caf 533d 143a 29bd
000003f0: 903b f7bd c860 cf3c 429e fcbd d815 22bd
-0.11554316 0.15124848 0.037526917 -0.13062681 0.092961736 -0.10125448 0.14776741 0.07293277
-0.083165936 -0.0937934 0.04929997 -0.015461872 0.038029734 -0.08146002 -0.016724223 0.016335562
-0.03205116 -0.012753804 0.119041204 0.069483854 -0.007007699 0.09596619 0.037927892 -0.092133135
0.0829519 0.031972367 0.021438135 0.036474954 0.021028247 0.05011566 -0.06808001 0.11862949
0.03824701 -0.043220438 -0.053571776 -0.12340725 0.114420235 -0.036161378 -0.006809404 0.049338367
0.08859623 0.07960984 -0.00026933273 -0.06633067 0.07734065 0.083535984 -0.08248459 0.052840978
-0.049633246 -0.036294058 -0.020901617 0.05389623 0.10538248 0.083863266 0.05049717 -0.00032418966
0.09604034 -0.020371083 0.07509562 0.16271572 -0.016715098 0.14159255 0.12069981 -0.05396557
-0.060258478 -0.044726625 -0.061621264 -0.12202434 0.027241439 -0.08870886 -0.07001601 0.04080355
0.09834911 0.1152979 -0.007701054 0.06832588 0.09539534 -0.074977845 0.1107797 -0.022515878
0.08012931 -0.04536891 0.037203655 -0.005291447 0.05826509 0.076551676 0.07165754 -0.011539191
-0.002739042 0.06568156 -0.097559825 0.0031811 -0.06718859 -0.017499626 0.07548784 -0.045194194
0.11404255 -0.07404363 0.035297498 -0.11498177 -0.08405626 0.022370309 -0.030828655 0.06016849
0.012218192 -0.044226453 -0.001750499 0.02090317 -0.02195695 0.037650466 0.11266498 -0.07853718
-0.10344814 0.12194121 0.05592592 -0.007279381 0.05096665 0.018611535 0.010250077 -0.016059473
0.03788729 0.074799284 -0.12496343 -0.1074011 0.058995456 0.013953343 0.067868575 0.08860205
0.10487284 0.030836238 0.116947785 -0.07028733 -0.115867436 0.10004906 0.13027953 0.005876429
0.0642578 -0.08383456 0.11117047 -0.051281743 -0.05576348 0.053151347 0.12262746 -0.06247273
-0.030298352 -0.07974909 -0.040224925 0.1441774 0.11915843 -0.09653646 -0.09664689 0.095506825
-0.037135527 0.15798688 0.0066800485 -0.07120914 0.12489243 0.16543594 0.032493696 -0.025003051
0.14726366 0.09160547 0.018743396 -0.04449235 0.10406287 -0.044872403 0.15232493 0.07785222
0.05873526 0.065420404 -0.07037297 0.024767254 0.08665848 -0.014251634 -0.02299054 0.051415443
0.034748998 0.013852671 0.047016155 -0.0716591 -0.07643923 0.078430966 0.13643335 0.120738655
-0.08478033 -0.14931682 -0.030691331 0.059649058 0.0036904784 0.015065603 0.01194419 0.15858497
0.009778157 -0.10633874 -0.102924466 -0.07355994 0.10964055 -0.036626324 -0.111363366 0.093366295
-0.030077651 0.01644428 0.0041581094 0.023588076 0.01193431 0.11412726 -0.0756872 -0.0455292
0.037878096 0.031494617 -0.06237565 0.04768227 -0.11149351 0.08017874 -0.04267557 -0.033456996
0.0628757 -0.1190771 0.10922985 0.048099384 -0.0008905679 -0.002695933 -0.012714177 -0.032837287
-0.07803503 -0.019926548 -0.013280168 -0.061466232 0.121502906 -0.12070769 0.08996138 -0.03641437
-0.02660881 -0.06305651 0.082598194 -0.016346306 0.06739329 -0.042498365 -0.12284176 -0.0932156
0.03351347 -0.08158107 -0.08804107 -0.057926998 0.063720554 -0.09781797 0.021937132 0.06553449
-0.12274295 0.10618314 0.051680908 -0.041315153 -0.120719075 0.025314704 -0.12334873 -0.039571613

hiddenlayers.2.bias f4 [64]
00000000: bd45 073e 0654 9ebd 9cf2 a539 c8dd f0bc
00000010: 0f5b 05be ee87 bb3d 19d5 d23c d688 b8bc
00000020: decb 133e 6c6e 59bd 31ca 973d dc38 debd
00000030: 90b1 e3bd 9225 32bc 7c24 9fbc 19dd e5bd
00000040: 6e3e b43c 05a6 5c3e 7fef 723e 68da e63d
00000050: 5fce 4fbc 5e16 a63b 28cf 4d3d 872b bb3d
00000060: c9e1 513e bc20 98bd b24e 4d3e 324e e7bd
00000070: 332b 01be 5044 bfbc 42f2 8f3d be2d c6bd
00000080: 2567 c63d d514 913d ded6 b1bd 9895 40bd
00000090: e446 2bbd 6ebc 6cbc f4df cebd e0cb d23d
000000a0: 5ad8 c1bd 6cd1 ccbd 856e d9bd b1ce a13d
000000b0: 72ca 7bbd 8f95 99bd 9872 1fbd e629 e8bd
000000c0: 2a14 b6bd f8a4 143e 73a2 9b3d 7689 a4bd
000000d0: 26b1 b43d a275 a6bd 95ba e8bd d85b fb3c
000000e0: 84fd 8fbc 28c5 e1bc 2810 5fbd 60e0 ad3b
000000f0: 7fd8 6cbc 5df6 ebbd 3067 c9bd 9bc2 8cbd
0.13210197 -0.0773087 0.0003165201 -0.029402629 -0.13023017 0.09156786 0.025736379 -0.022526186
0.14433238 -0.053083822 0.07411612 -0.10850689 -0.11117852 -0.010873215 -0.019426577 -0.11223812
0.022002425 0.21547706 0.23724173 0.112721264 -0.01268348 0.0050685843 0.050246388 0.091391616
0.20496286 -0.074281186 0.20049551 -0.112942114 -0.12614135 -0.023348004 0.07028629 -0.096766934
0.09687642 0.070840515 -0.08683561 -0.047017664 -0.041815653 -0.014449222 -0.101013094 0.10292792
-0.09465094 -0.100008816 -0.10616783 0.079007514 -0.061472364 -0.07499229 -0.038927644 -0.113361165
-0.08890565 0.14516056 0.07599344 -0.08034031 0.08822851 -0.081279054 -0.11363713 0.030683443
-0.01757694 -0.027559832 -0.054458767 0.0053062886 -0.014455914 -0.115215994 -0.098341346 -0.068730555

hiddenlayers.4.weight f4 [1, 64]
00000000: 918a ec3d 3a13 90bd d856 0a3e 58cf 883c
00000010: 8cdf 913d 5621 713d 7cf8 0e3e 016b 0e3e
00000020: 0ed0 fcbd 6ef3 3c3e 7956 0f3e 7efb f93d
00000030: 6cf4 7abd 4799 3a3e b00b 77bc d77f 7d3d
00000040: 1222 b1bd 468d 0fbe ebe6 a3bd 09d2 15be
00000050: 756f 8cbc 300d cb3d aae7 f53d ccbf c03d
00000060: 8116 123e e82e 9a3c c72a aabd fe18 2c3e
00000070: de80 f13d a086 35bc 1247 a33d 49c8 a5bd
00000080: 060a 2d3e aab7 0dbe 8662 f9bd e5cd a73d
00000090: eebf fa3d d4e8 ce3d 6690 16bd 1a68 e5bd
000000a0: 3011 2dbc 41e7 b33d df30 1c3d ce9a efbc
000000b0: d2b1 be3d 3d92 993d 7800 64bd d31e 4cbd
000000c0: aac6 8b3d 44a8 dfbd c471 86bd 4000 cc3b
000000d0: baec 8d3d cdc1 c43d 425c c13c 4848 8cbc
000000e0: 6330 e03c b0ac 9bbd 82fa e63d de95 92bd
000000f0: 7d91 1d3e 552f 003e 947c 4fbd 8309 073e
0.11549867 -0.07034917 0.13509691 0.016700432 0.07122716 0.058869682 0.13961977 0.13908006
-0.12344371 0.18452236 0.1399783 0.122061715 -0.061268255 0.18222533 -0.01507847 0.061889496
-0.086490765 -0.14018735 -0.080030285 -0.14630903 -0.01714299 0.09914625 0.12007077 0.09411582
0.14266397 0.018821195 -0.083089404 0.16806409 0.117921576 -0.01107946 0.0797254 -0.08094842
0.16898355 -0.13839594 -0.12176995 0.08193568 0.12243639 0.10103002 -0.036758803 -0.112014964
-0.01056318 0.087843426 0.038132545 -0.029248621 0.0931126 0.07498596 -0.05566451 -0.049834084
0.068250015 -0.10920766 -0.06564668 0.0062256157 0.06929918 0.09607277 0.023603562 -0.01712431
0.027366823 -0.07601297 0.11278249 -0.07157491 0.1538753 0.12518056 -0.050655916 0.13187222
