models/european_call.pt (torch, 21661 bytes, 5 tensors)

hiddenlayers.0.weight f4 [64, 5]
000000 22 e0 21 bf 6d 98 bd 3e bc a0 ad 3f a5 4b 01 be
       -0.63232625 0.37030354 1.3564677 -0.12626512
000010 1f 6d 44 bd d2 f7 dd 3e 7b 29 14 be 6b 7d 0b c0
       -0.04795563 0.43353134 -0.14468949 -2.17953
000020 2d 9e 10 be 92 09 0c 3f 55 94 23 bf 8f c3 10 be
       -0.1412284 0.54702103 -0.6389821 -0.141371
000030 64 0d 3b 40 a5 dd 27 3f ff 19 75 3d d2 67 ba 3f
       2.9226923 0.6557258 0.059839245 1.4562933
000040 90 24 51 bd 7c a6 60 c0 7e 0e fa bd e3 e3 86 3e
       -0.05106026 -3.5101614 -0.122097954 0.2634574
000050 ad 99 10 bf 4e a3 b9 3e e1 ba c9 3e aa 94 7f 3d
       -0.5648449 0.36257404 0.3940039 0.062397636
000060 78 ad c8 3e 1f d1 79 be 1b 57 bd be 67 56 bb 3d
       0.39194846 -0.2439618 -0.3698052 0.09147339
000070 ef 5c d1 3e 08 7f 53 bc 7b c3 b6 be 4a 58 c5 3e
       0.40891215 -0.012908705 -0.35696015 0.38543922
000080 fe 7a e6 3f 76 a8 7c bd 51 4f 41 be 03 bf d1 3e
       1.8006284 -0.061684094 -0.18877913 0.40966043
000090 c8 5f e5 3e 1d b9 93 bf f2 72 67 3e bd 63 bf 3e
       0.44799638 -1.1540867 0.22602442 0.37380782
0000a0 ec a1 ca 3e 4d d9 d2 be ff a8 73 bf 11 fd d4 3e
       0.39576662 -0.41181412 -0.9517974 0.41599324
0000b0 bc eb d0 3e 12 a7 d7 3f 2a 9e 8e be a3 d8 d9 bf
       0.4080485 1.6847861 -0.27855045 -1.7019237
0000c0 05 5d 32 bf a9 36 d1 3e 95 07 c0 3e e6 9a b8 be
       -0.69673187 0.40862015 0.37505785 -0.36055678
0000d0 39 7b 95 3e 63 77 16 3e 01 ba 51 be 67 20 9c 3d
       0.29195574 0.1469398 -0.20481111 0.07623368
0000e0 58 cd d3 be 06 7e 5a be c2 e2 62 3d e1 1b 9c be
       -0.41367602 -0.21337137 0.055392034 -0.3049002
0000f0 74 fe d9 3e 1e 98 c4 be ed c4 88 3f 74 a1 ce 3d
       0.42576945 -0.38397306 1.0685097 0.100893885
000100 52 c6 b8 3d ca 9a f4 bd c3 f0 16 bd 00 21 bd be
       0.090222016 -0.11943586 -0.036850702 -0.3693924
000110 0e c3 c2 be 70 a4 92 be 2a 7f a2 be 07 21 50 bc
       -0.3803944 -0.2864108 -0.31737643 -0.012703187
000120 8d 09 2b 3e 5d 39 8a 3e df dc ab bb 2d 8c ae 3f
       0.16702862 0.2699689 -0.0052448357 1.3636528
000130 5c 28 ce be f3 40 91 bf dd 74 58 bd 5a 5a c8 3e
       -0.40265167 -1.1347946 -0.052845825 0.39131433
000140 ed 7c 10 3d 97 0a c5 bd e8 ef 39 bd 36 5e 60 3e
       0.03527539 -0.096211605 -0.045394808 0.21910939
000150 be 27 d7 be 78 17 32 be 5f ad e0 bc 8d ea 22 be
       -0.42022508 -0.17391765 -0.02742642 -0.15909787
000160 5c 78 e7 bd 26 41 df be 64 e8 52 bd 6b c2 90 3e
       -0.113022536 -0.43604392 -0.051491156 0.2827333
000170 d9 59 45 3f 05 f5 b7 3e 42 ee a3 3b b9 e9 80 be
       0.7709022 0.35929123 0.005002768 -0.25178316
000180 6f 37 a0 be 95 6a af be 1f e3 bb 3e 43 1c e8 bc
       -0.31292292 -0.34261003 0.36696717 -0.028333789
000190 6f e3 b4 bf b4 e2 c0 3e 04 af 43 40 cb 6e 19 3f
       -1.4131907 0.3767296 3.057557 0.5993468
0001a0 63 89 bd be 9e a3 dd 3f 4d 9e 87 be 0e 86 b8 bf
       -0.3701888 1.7315557 -0.2648796 -1.441591
0001b0 aa 3a c2 3e 3b 97 83 3e d1 c2 67 bf 51 68 9a 3e
       0.37935382 0.25701317 -0.9053164 0.30157712
0001c0 1c 61 2e 40 5e 01 8b be 19 08 98 be 46 c8 1d 3f
       2.724677 -0.2714948 -0.29693678 0.6163372
0001d0 ab 70 8e be bd 0a 8c bf 75 7a b2 be ad e5 8c 3e
       -0.27820334 -1.0940777 -0.34859052 0.2751898
0001e0 33 4b 90 bd 65 bc 58 bd fa b4 5a 3e bd 61 86 3d
       -0.07045593 -0.052914042 0.213581 0.06561611
0001f0 d0 d9 c3 be 1e 5a 13 3e c5 4e 6f be ed ca cf be
       -0.38252115 0.14389846 -0.23369892 -0.40584508
000200 45 6c c0 bd ae 03 b5 be 0f d8 ac be f4 37 ae 3e
       -0.09395651 -0.3535437 -0.3375859 0.34027064
000210 2d 0a a9 3d 7e 34 6a be 9b 45 91 3e 56 bd 84 bd
       0.08253894 -0.22871587 0.28373417 -0.064814255
000220 ce b7 79 3e b8 a6 9e 3f 8a 38 ba 3e 69 a4 ee 3c
       0.24386522 1.2394629 0.3637126 0.029131131
000230 6e bb ab 3f 87 4b 84 be cc 2d b8 bf 46 3b 9e 3c
       1.3416574 -0.25838873 -1.4388976 0.019315373
000240 9c 45 80 3e bb bc 62 be fe 49 f7 3c f5 de ac 3e
       0.25053108 -0.22142307 0.03018665 0.33763853
000250 c6 83 02 be 02 74 c6 be 47 70 ca 3f d2 9e 98 bd
       -0.1274558 -0.38760382 1.5815514 -0.074521676
000260 7c c3 84 c0 9a 78 90 be 46 93 c1 3e b6 ee 3e bd
       -4.148863 -0.28217012 0.37807673 -0.04661437
000270 42 b5 36 be b7 fb 48 be 7e 8d 8c 3d a3 45 46 be
       -0.17842582 -0.19627272 0.06862925 -0.19362502
000280 e5 34 87 3f ff cd 90 be 2a e3 9e bf a5 a3 a6 bd
       1.0563017 -0.28282163 -1.2413075 -0.081366815
000290 e4 d5 8e 3e 69 8a 97 bf c2 3a 9f 3e a5 67 6c 40
       0.2789756 -1.1839114 0.31099516 3.693826
0002a0 e4 2c 53 3f 8a 05 9f be 0b 00 00 bf bf 61 c6 3e
       0.8249037 -0.31058913 -0.50000066 0.3874645
0002b0 4d 3c 03 40 b2 7f c2 bd e0 44 ce bd 91 4e c3 3e
       2.0505555 -0.09497012 -0.100717306 0.3814588
0002c0 b0 8d 98 3e 54 9b 83 bf 2c 38 e7 be f9 c0 09 3e
       0.297956 -1.0281777 -0.45160043 0.1345252
0002d0 ae 6b d2 3d 00 f4 5d 3d fc d6 2c bf 8f c3 c3 be
       0.102744445 0.054187775 -0.6751554 -0.38235137
0002e0 49 32 c1 3e d1 0b b0 3f c5 4d b4 be 34 49 ac bf
       0.37733677 1.3753606 -0.35215583 -1.345984
0002f0 c1 0a 50 be 53 00 b2 3e 20 5b b6 3e c9 d8 73 be
       -0.20316602 0.34765872 0.35616398 -0.23813166
000300 4b 91 8b 3d 17 12 4a bb 1b 15 8b bd 9e b3 2e bf
       0.06814822 -0.0030833536 -0.06791135 -0.68242824
000310 e9 0b 17 3e 1a 51 15 40 01 12 8c 3e ff 6f 94 bd
       0.14750637 2.333075 0.27357486 -0.07247924
000320 3f 24 8b bd a1 0b bb 3e ac 77 7a 3e 9d f6 3e 3e
       -0.06794023 0.3653231 0.24459714 0.18648763
000330 23 54 9c 3e 11 b1 bb 3f 3e 5f a1 be 01 84 92 bf
       0.3053294 1.4663411 -0.31517977 -1.1446534
000340 ba 0d b4 be 40 b6 9d 3e 27 3f 68 bf 91 31 b6 3e
       -0.35166723 0.30803108 -0.9072136 0.3558469
000350 d7 d5 01 40 ca c8 85 3e 5a 35 aa 3e 2d 3b cc be
       2.0286767 0.26129752 0.3324383 -0.39888898
000360 9b 11 2f 3e 4b b1 e0 3f 48 c8 cc 3d 0f 2f b2 3e
       0.1709656 1.7554106 0.09999138 0.34801528
000370 b5 76 16 bf fa df e4 3e 0a d8 09 40 56 fb 90 be
       -0.5877488 0.4470213 2.153811 -0.28316754
000380 02 bc ae 3c d0 c2 65 bf c9 83 d6 3d 01 6c 08 40
       0.021329883 -0.89750385 0.10474355 2.131592
000390 8f 25 b1 3d 2e eb 08 3e 5e 67 e8 bd b5 a3 bc 3e
       0.08649742 0.13370964 -0.11347841 0.3684365
0003a0 f2 bf 1f be e0 c2 d4 be 40 67 f4 b8 76 0c df 3e
       -0.15600565 -0.41554928 -0.000116540585 0.43564194
0003b0 f9 4c bd be a3 a6 a1 be 8c b3 dd 3e e9 a4 9d be
       -0.36972788 -0.31572446 0.43301046 -0.3078988
0003c0 31 3a 54 3d 45 7f 9a be 69 65 b5 3e 4e a5 8c bd
       0.05181331 -0.30175224 0.35428932 -0.06867467
0003d0 54 28 e3 be 7c 70 18 bf 2c 13 b4 3e 55 a9 1e 40
       -0.44366705 -0.5954664 0.35170877 2.4790852
0003e0 9e 7f fd bd 92 28 1a be c5 34 f3 3f 0a 64 d1 bc
       -0.12377857 -0.15054539 1.9000479 -0.025560398
0003f0 e6 2f 87 c0 79 81 98 be bd 3a 5a 3e 91 48 b9 be
       -4.224597 -0.2978628 0.2131147 -0.36188176

hiddenlayers.0.bias f4 [64]
000000 8f 50 65 3e de ed f4 bd 10 70 79 3f 9e 7c bb be
       0.22394012 -0.11959432 0.9743662 -0.36618513
000010 d0 f6 66 be 06 ff 89 be 1f e1 62 3e 65 ce f9 be
       -0.22555089 -0.2695238 0.2215619 -0.4879028
000020 1b cf ac 3d 9b 3f 26 be d0 55 0b bd e0 a9 d5 3e
       0.0843794 -0.16235201 -0.034017384 0.41731167
000030 6e a5 cd 3d 53 7d 24 be 01 22 a1 be a0 e3 bc 3d
       0.10041319 -0.16063432 -0.31471255 0.092231035
000040 35 cb 88 3e d8 b5 97 3d 82 9e 6e 3d 17 bd a9 3d
       0.26717535 0.07407731 0.058256634 0.08288019
000050 e9 e0 15 3f 45 6d 19 be 2b 19 20 3f 9d 0c 1d bc
       0.5854631 -0.1498309 0.62538403 -0.009585527
000060 2f f1 0f 3e ac be 41 bb c7 8b 7f 3e d2 ed 82 3d
       0.14056848 -0.0029563112 0.24955665 0.06393017
000070 93 1b d4 3d 39 b4 c9 be 9c 17 43 be db 7c ce be
       0.10356822 -0.3939531 -0.19051975 -0.40329632
000080 3b 5f ea be 18 24 63 3f e1 8c 12 3f 35 72 98 3e
       -0.4577578 0.8872695 0.57246214 0.29774633
000090 cb 17 a6 be db b7 2d bf 88 7c a3 3e ed 18 f1 3e
       -0.32440028 -0.67858666 0.31930947 0.4708933
0000a0 78 c1 96 be 18 96 b6 be a9 8d fb 3e 9e f5 02 3f
       -0.2944448 -0.35661387 0.49131516 0.5115603
0000b0 f9 4a ec 3e a3 9e 8b bd 11 4b c2 3e 15 60 a2 3e
       0.4615095 -0.06817367 0.37947896 0.3171393
0000c0 33 c6 ce be 7a 58 54 3e 3c ea 53 bf 8e 91 11 bc
       -0.4038559 0.20736876 -0.8277929 -0.008884801
0000d0 95 99 ca 3e 59 df 1e bf 40 50 cf 3e 4a f8 0b 3f
       0.395703 -0.6205955 0.40490913 0.54675734
0000e0 df bf 95 3e 8f 66 88 3e 61 f9 95 be 65 84 4a be
       0.2924795 0.26640746 -0.29291824 -0.19777067
0000f0 65 36 9b bd 96 89 48 bd 54 a5 94 be 0e c5 21 be
       -0.07578734 -0.048959337 -0.29032385 -0.15797827

hiddenlayers.2.weight f4 [64, 64]
000000 88 80 b8 bc 20 39 22 3c 08 34 4c 3d dc 6c 53 bd
       -0.022522226 0.009901315 0.04985431 -0.05161749
000010 e0 19 13 3d a4 a6 06 3d 40 5d 27 3d 2a 1e ff 3d
       0.03591335 0.032873765 0.040860415 0.12456925
000020 5c 69 b4 3d 08 6a 52 3d 52 5a b0 3d 7e cf ec bd
       0.08809158 0.05137065 0.08610977 -0.115630135
000030 c2 ac 97 bd c4 08 78 3d 6c ed d1 3d 20 c9 8a 3d
       -0.07405998 0.060555235 0.10250363 0.06776643
000040 d8 ab cb bc 30 13 ac 3d 3c 8e 2a bd be 71 a4 3d
       -0.024862215 0.08402097 -0.04163955 0.08029507
000050 d6 9c 9e bd c6 51 9d 3d 00 04 d9 3d 34 86 08 3d
       -0.07744758 0.07681613 0.10596466 0.03333111
000060 04 d2 75 3d d0 da 0b 3d 00 ee e9 bd 80 fb c0 3a
       0.06001474 0.034144223 -0.11422348 0.001472339
000070 f0 85 d8 bc 60 88 7d bc f4 8f a9 bd 3e 3b f3 bd
       -0.026431054 -0.015474409 -0.0827941 -0.11876534
000080 10 7d d2 bd 34 bd a0 bd 48 2c db bd 74 1e 7e bd
       -0.1027776 -0.07848588 -0.10701805 -0.06204076
000090 18 87 49 bd e0 1b 24 bd b0 3a 75 3c b4 da cd 3d
       -0.0492011 -0.040065646 0.0149676055 0.1005148
0000a0 e0 e1 12 bd 84 d3 70 3d e8 46 f4 bc a4 31 39 bd
       -0.035859942 0.058795467 -0.029818967 -0.045213357
0000b0 64 e3 e3 3d b4 70 89 3d 0c f8 e0 bd 2c 66 79 bd
       0.11127356 0.067109495 -0.10984811 -0.060888454
0000c0 f0 92 98 3d 04 5f 14 bd 64 9a 00 3d a8 db 4c bd
       0.07449901 -0.036223426 0.03139724 -0.050014168
0000d0 72 80 b8 bd b6 6f f4 bd 70 63 8b 3c 20 36 90 3b
       -0.09008874 -0.1193537 0.017015189 0.0044009835
0000e0 e0 b0 5d bc e6 fb df 3d de 7b 8f 3d d0 31 e9 3d
       -0.01353094 0.10936718 0.07006048 0.11386454
0000f0 30 a4 a8 3c 4a 38 b1 bd 08 47 d2 bd ac f3 d5 3d
       0.020586103 -0.086533144 -0.102674544 0.10446867
000100 2a 18 f2 3d 14 66 0d 3d d0 93 9a 3d b0 89 42 bd
       0.11821015 0.034521177 0.07547724 -0.04749459
000110 fa c1 f3 3d 82 9f c2 bd f0 fd c1 bc 72 e5 8d bd
       0.119022325 -0.0950308 -0.023680657 -0.06928529
000120 08 7e 9d 3d fc a4 a9 3d f4 64 be bd a8 1e e1 bd
       0.07690054 0.082834214 -0.09296599 -0.10992175
000130 c0 2b 2f 3c 9a 38 a9 bd 4c 8d f8 3d 22 40 89 bd
       0.010691583 -0.08262749 0.12136325 -0.067016855
000140 e0 3c 3f 3c b8 34 c1 bc e0 6f 06 3c d0 dc e1 3c
       0.011672229 -0.023584709 0.008205384 0.027571112
000150 d0 77 77 bd 20 88 a6 bb 64 d0 5e bd c0 95 19 3b
       -0.060416996 -0.0050821453 -0.054397956 0.0023435205
000160 02 f8 b3 3d 98 64 9a 3c 58 02 30 3d da 05 aa 3d
       0.08787538 0.018846795 0.042970985 0.08301897
000170 44 4f 59 bd 4a ae e7 bd 22 5d 9e bd 1c 6d 02 3d
       -0.05305411 -0.1131254 -0.077326074 0.031842336
000180 94 3c 19 bd a4 0f e6 bd 34 58 ae bd ba 04 e9 bd
       -0.037411287 -0.11233452 -0.08512917 -0.11377855
000190 a0 60 f1 bb b2 ad 87 bd 7c 88 ba bd 80 ae e5 ba
       -0.007366255 -0.066249266 -0.091080636 -0.0017523319
0001a0 6c 46 a0 bd 48 f9 4e bd 88 48 39 3d a8 14 54 bd
       -0.07825932 -0.050530702 0.045235187 -0.05177751
0001b0 48 ba 8d bd 6c 39 78 3d c2 31 bf bd 28 d6 0b 3d
       -0.06920296 0.060601637 -0.093356624 0.034139782
0001c0 80 ed 0d 3c a2 56 83 3d e6 57 87 3d 06 25 aa 3d
       0.008662581 0.06413008 0.06608562 0.08307843
0001d0 fa 19 e3 3d 54 6d 21 bd 90 eb 08 3c f2 11 c7 3d
       0.11088939 -0.039410904 0.008356944 0.0972022
0001e0 52 c1 96 bd 38 89 ad bc f8 dd 83 bc 8c cb 5c 3d
       -0.07361092 -0.021183595 -0.016097054 0.053905055
0001f0 d0 0f 75 3d be 29 8e bd 30 4c 36 3c 6e de c8 3d
       0.059829533 -0.069415554 0.011126563 0.0980805
000200 e7 77 c9 bd 62 0c d1 bc ae 4d c2 bd 16 49 01 be
       -0.09837323 -0.0255186 -0.094874725 -0.12625536
000210 84 bb 75 bd 5c 2c 3d 3d 42 e3 d4 3d 72 49 7a bd
       -0.059993282 0.046184883 0.103949085 -0.0611052
000220 66 d0 84 bc ad 21 47 bd 00 eb 92 bc 80 19 ed bb
       -0.016212653 -0.0486161 -0.017934322 -0.007235706
000230 6d b1 9b bc 58 2b e9 3c 68 2f d6 3c 44 b7 e6 3d
       -0.019005502 0.02846305 0.026145652 0.11265424
000240 4e 34 d2 bd dc bd 58 3d 8f c2 18 3d 1c 71 ec 3d
       -0.102638826 0.05291544 0.03729492 0.115450114
000250 40 24 62 bd 86 06 ca bc 4a 36 d7 bd d7 3e b9 3d
       -0.055210352 -0.024661314 -0.10508402 0.09045189
000260 1c 17 75 bd e8 0c 89 bc 10 b5 d0 3d ed 19 db bd
       -0.059836492 -0.016729787 0.10190785 -0.10698304
000270 ef c6 b1 3b 0c eb 08 3d b4 b5 50 bd 40 90 60 bb
       0.005425326 0.033427283 -0.050954536 -0.0034265667
000280 8d 45 32 bc a4 9c 49 bd 4a a5 bb bd 60 95 02 be
       -0.01088084 -0.04922165 -0.09162386 -0.12752295
000290 fa 35 8c 3a 7b b0 04 be 5c 41 74 3d 48 61 82 bd
       0.0010697239 -0.12957947 0.059632644 -0.06366211
0002a0 4a a0 9c bc c8 b6 05 3d bf 60 69 bd 84 6a ca 3b
       -0.0191194 0.032645017 -0.05697703 0.0061772484
0002b0 aa f8 0e 3d b4 f8 be bd 1f 96 5e 3c ba 1e d9 bd
       0.034905113 -0.0932478 0.013585596 -0.10601564
0002c0 20 43 16 3c 74 0f 3a 3d d7 61 2a 3d a5 43 3b bc
       0.009171277 0.045424893 0.041597214 -0.011429702
0002d0 9c c2 54 3d 71 b4 17 3d b4 87 9a bd c8 b6 0b be
       0.051943406 0.037037317 -0.075454146 -0.13643944
0002e0 9d ea c6 3d 7e 53 2c bc 88 5b b4 bc f2 04 a4 bd
       0.09712718 -0.010517953 -0.022016302 -0.08008756
0002f0 e0 cf 08 3c 6e 60 d4 3d d9 bf 29 3d 0e 3f 28 3d
       0.0083503425 0.10369955 0.041442726 0.04107576
000300 61 90 33 bc 2e f7 cf bd 54 e8 17 3d ca 4a bf bd
       -0.010959716 -0.10154568 0.0370868 -0.09340437
000310 94 f0 e4 bc 96 da 92 3d d1 0b 99 bd 31 ae 04 3d
       -0.027946748 0.07170598 -0.07472957 0.032392684
000320 0e e0 65 bd 7b c7 d1 bd f4 95 09 bd 8c cd 64 3d
       -0.05612188 -0.10243126 -0.033590272 0.055860087
000330 c0 fa a0 bd a0 12 58 3c 34 8d 85 3d 56 cd 0d bc
       -0.07860327 0.013188034 0.06521073 -0.008654913
000340 46 79 d8 3d 3a ef 89 bd 68 f3 79 bd 46 71 f1 bd
       0.10570006 -0.06735082 -0.061023146 -0.11789183
000350 65 55 1f 3d 52 85 37 bd 54 5d a1 3d 7e d9 bd bd
       0.038899798 -0.04480488 0.07879129 -0.09269999
000360 70 9c cd 3c fa f4 ab 3d be 93 46 bc 53 6e d1 bc
       0.02509901 0.08396335 -0.012120185 -0.025565302
000370 2b 38 9a bd b0 3a b3 bd 45 13 01 be c8 98 ce 3d
       -0.075302444 -0.08751428 -0.12605007 0.100877345
000380 2a 4f a9 3d f3 05 aa bd e6 74 fa bd ee 6d 81 3c
       0.082670525 -0.08301916 -0.12229328 0.015799489
000390 b3 fa 92 3c 98 5c 06 3c 04 f5 00 3d 40 81 02 3d
       0.017941808 0.008200787 0.031483665 0.031861544
0003a0 dc 8e 6e bd 5c 8a a2 bd b8 3b c2 bd 1a 01 8b 3d
       -0.05824171 -0.07936546 -0.09484047 0.067873195
0003b0 7f c6 88 3d d3 63 b9 3d 58 8f 0c 3d 68 6e b8 3c
       0.06678485 0.09052243 0.03431639 0.022513583
0003c0 50 a8 81 3d 98 ca 13 be 8a d7 a0 3d b0 2c 28 bd
       0.06330931 -0.14432752 0.07853611 -0.041058242
0003d0 28 0b 9e 3d 2d f3 98 3d c8 c5 b3 bc 9b 48 99 3d
       0.07716972 0.07468257 -0.021944895 0.074845515
0003e0 11 c0 94 bd c0 6e 1e bc f0 41 6b bc 50 35 51 3d
       -0.07263196 -0.00966996 -0.014358982 0.051076233
0003f0 3c a8 31 3d 86 a8 e7 bc 2c a6 a4 bc 95 a8 53 bd
       0.04337333 -0.0282786 -0.020098768 -0.051674444

hiddenlayers.2.bias f4 [64]
000000 80 55 f9 bc 28 94 81 3c 7f 9d 48 bd 5a 0d 82 3d
       -0.030436277 0.015817717 -0.048978325 0.06350203
000010 20 19 7c bc da 34 3b 3d ad d3 e3 bc 4c d7 49 bd
       -0.01538685 0.0457047 -0.027810896 -0.04927759
000020 9a 79 84 3d 20 8e 20 bd a7 ea a5 3e 9c 4f a8 be
       0.06468506 -0.03919804 0.32405588 -0.32873237
000030 46 0e b2 3d 7c 1a a5 3c f9 00 42 3e 02 96 e5 3d
       0.08694129 0.02015423 0.18945684 0.11210252
000040 cb 1b 2d 3e c6 d9 30 3e 5a 88 f3 bd 02 1c 94 3d
       0.16905133 0.17270574 -0.11891241 0.072319046
000050 ce 7d 2a 3d 70 a0 0f bd 3e f7 f2 bc e0 11 16 3b
       0.041623883 -0.035065114 -0.02965891 0.0022898838
000060 f7 59 df bd c8 b9 09 be 66 51 14 3e 2b 53 7d be
       -0.10905831 -0.13449776 0.14484176 -0.24738757
000070 b8 ee 63 be 4c 89 02 bd e8 24 28 bd 7c b1 4b be
       -0.22259033 -0.031869218 -0.04105082 -0.19891924
000080 e0 1e 42 3e 60 d2 b4 bb db 58 02 bc 80 3e 3c 3d
       0.1895709 -0.0055182427 -0.007955755 0.045958042
000090 1c af 65 3d 56 3d d4 3d 3f fc 48 bd 48 3b 21 bd
       0.0560752 0.103632614 -0.049068686 -0.039363176
0000a0 dc 05 2d 3e 18 13 13 3e f0 28 96 bd 1f 76 a1 3d
       0.16896766 0.14362752 -0.07332027 0.07883858
0000b0 60 74 99 3d 2e d1 96 bc 61 a8 2c 3d 08 9a cf 3d
       0.074929 -0.018410292 0.042152766 0.10136801
0000c0 65 f8 92 bd 06 b6 58 3e 28 99 74 bc 60 38 08 3d
       -0.07176284 0.21163186 -0.014929093 0.03325689
0000d0 18 21 41 3d 5c 88 04 3c 20 79 d7 3d c3 1b b7 3d
       0.0471507 0.008089151 0.1052115 0.08940842
0000e0 36 1c 9d be 7c a4 ab bc 97 09 70 3d 11 cf fc bb
       -0.30685586 -0.020952456 0.058602896 -0.007715114
0000f0 ee 44 19 3f 43 1b 96 bd c0 46 91 3d a1 b8 19 3f
       0.59870803 -0.073294185 0.070935726 0.60047346

hiddenlayers.4.weight f4 [1, 64]
000000 9c fd 7a bd c0 6a 40 bd 61 b0 d0 3d bd da 90 bd
       -0.061277017 -0.046976805 0.101898916 -0.07072971
000010 8c d7 39 bd c0 ef a2 bd 85 2b bf 3d f0 a0 9f 3d
       -0.045371577 -0.07955885 0.093344726 0.07794368
000020 1e 58 ee 3d 74 8d d5 bd 63 c0 4c 3d 51 6b 11 be
       0.11637901 -0.10427371 0.04998816 -0.14201094
000030 16 27 6a 3d b7 c4 d4 3b dd 12 f1 3d c6 f2 e8 bd
       0.05716618 0.006493177 0.11771176 -0.1137443
000040 b6 11 08 3e c0 d2 1b 3e f0 fe 37 3d 0e 5b e2 3d
       0.13288006 0.15217113 0.04492086 0.110525236
000050 19 26 fe 3d 00 a4 e9 b9 f1 d6 4c bd f7 99 7a 3d
       0.1240961 -0.00044563413 -0.05000967 0.06118199
000060 6b 20 c5 bc e3 75 55 bd 20 51 0a 3e ab e8 4e be
       -0.02406331 -0.05211438 0.13507509 -0.20205943
000070 33 e8 53 be a8 9a a2 3c f8 cb 6f 3d 20 28 1d be
       -0.20694046 0.019849136 0.05854413 -0.15347338
000080 a8 bf 6c 3d 16 a7 ee 3d 6c c6 d6 3d a0 13 13 bd
       0.057799965 0.11652963 0.10487065 -0.035907388
000090 3f a7 70 bd 90 ec 23 3d 29 1b f2 bc 48 4a fe 3a
       -0.05875325 0.040020525 -0.029553967 0.00194008
0000a0 3f 9c 2c 3d d4 21 63 3d d8 80 cd bc 38 89 66 3d
       0.042141195 0.055452183 -0.025085852 0.056283206
0000b0 f0 9b 31 bc c2 e0 58 3d b8 97 85 bd e4 61 8c bd
       -0.010840401 0.05294872 -0.06523079 -0.06854609
0000c0 4d 7b 3a bd d4 12 01 3e 83 c0 05 3e e4 f3 74 bd
       -0.045527745 0.12604839 0.13061719 -0.059802905
0000d0 fc 25 b3 bd ea c0 ed bb 1a e9 cc 3d 14 0e 02 3e
       -0.08747479 -0.007255663 0.10005398 0.12700683
0000e0 1e 23 3d be 89 ea 94 3d 8d 56 ef bc e7 32 0a bd
       -0.18470427 0.072712965 -0.029216075 -0.03373995
0000f0 e5 39 5f 3e bb 40 c2 bd 7b 58 fb bc c8 62 22 3e
       0.21799429 -0.094850026 -0.03068184 0.15857995
