models/european_put.pt (torch, 21649 bytes, 5 tensors)

hiddenlayers.0.weight f4 [64, 5]
000000 2b 0c 83 3f 61 5d 94 be 57 65 6d c0 3d 50 80 be
       1.0238088 -0.28977492 -3.7093103 -0.25061217
000010 d2 63 93 3e 04 16 87 3f 45 7c 96 be 98 a0 5b c0
       0.28787094 1.0553594 -0.29391685 -3.4316769
000020 02 cb 41 3d 00 97 96 3e 76 74 50 3f 89 7c 87 bd
       0.047312744 0.2941208 0.81427705 -0.0661555
000030 5a a1 46 bf f1 59 ae be 21 e5 7d 3e 4a 37 f3 be
       -0.7758995 -0.34052995 0.24794437 -0.4750312
000040 0f 50 b9 3d 45 5e d0 3f d8 90 00 bf fa ca 30 3e
       0.09048473 1.6278769 -0.50221014 0.1726493
000050 f5 7e d4 be 6f 4e 2d be c9 14 1b 40 52 a2 4f 3e
       -0.4150311 -0.16924451 2.4231436 0.20276764
000060 58 b1 6b 3e 86 8a b8 3d e1 18 42 3e c9 ad e7 be
       0.2301687 0.09010796 0.18954803 -0.45249775
000070 79 7a b0 3e 37 51 ac 3e 3a 94 c7 3e 47 e2 c5 3e
       0.3446844 0.33655712 0.38980275 0.38649198
000080 23 82 20 bf 91 6f 2b be 49 15 01 be 78 ea 12 bc
       -0.6269857 -0.16741778 -0.12605776 -0.0089670345
000090 c9 04 3e 3d bc 82 d1 3d 8d 51 ed be a2 e7 5a be
       0.046391282 0.10230014 -0.4635128 -0.21377423
0000a0 b0 44 91 3f e9 d3 9e bd 00 f1 2e c0 64 e3 26 be
       1.1349087 -0.077552624 -2.7334595 -0.1629768
0000b0 d1 a3 9b 3d 3b 5f 69 bf 93 e7 c4 3e 0e fd 4b 3f
       0.07599605 -0.91160935 0.38457927 0.79683006
0000c0 a8 79 d5 3a 84 30 f8 bd a0 65 b8 bf 7f 78 b4 3e
       0.0016286867 -0.121186286 -1.4406013 0.3524818
0000d0 f4 cb 5b 40 f2 6c 32 3e 53 12 39 3c d5 b3 00 3e
       3.4343233 0.17424372 0.011295873 0.125686
0000e0 b4 30 8d be 48 e6 79 3e bc e1 b6 be 24 bc 87 be
       -0.2757622 0.24404252 -0.35719097 -0.26510727
0000f0 c6 1b 5f 3d 48 90 85 be 0e a9 69 bc 6f 75 dd 3e
       0.054469846 -0.2608664 -0.014261497 0.43253657
000100 93 ee 21 bd 1d b1 b9 be c7 25 1a be b5 c6 22 be
       -0.039534163 -0.3626794 -0.15053473 -0.15896113
000110 a7 22 85 3d 93 11 82 be 56 3f 25 3e 43 fe 1d 3d
       0.0650075 -0.25404033 0.16137442 0.03857256
000120 fc 0b 67 be 37 a0 32 be 87 05 b1 3e bb be e1 3b
       -0.22563165 -0.1744393 0.3457453 0.006889192
000130 ad a4 9e be d5 e8 cc be af 1a 70 be 6e dd 3a bd
       -0.30985013 -0.40021387 -0.23447679 -0.045621328
000140 91 73 bf 3e e1 97 e6 3e b5 98 e0 be e3 f7 ba 3d
       0.37392858 0.4503775 -0.43866506 0.09129312
000150 c4 63 e4 3d c7 df 6f be 9d fd 9d be b9 75 b4 3e
       0.11151841 -0.23425208 -0.30857554 0.35246065
000160 92 c6 82 be 5d b1 9d be 5d f3 24 3d ff 7d 87 3e
       -0.25542122 -0.3079938 0.04027115 0.26463315
000170 6d dd 4a bf 7f 6f ec 3d fe 85 22 3e b1 3a 43 3e
       -0.7924412 0.11544704 0.15871426 0.19065358
000180 ae 5f d9 3b 9d 8a d5 be e6 cc 84 be 4f 5b 33 bd
       0.0066337204 -0.41707316 -0.25937575 -0.04378825
000190 77 a9 46 3d 39 1f 38 be f0 71 ad be 8d e1 03 bd
       0.048501458 -0.1798066 -0.3387599 -0.032197524
0001a0 d3 c6 8a be 45 24 9f bd 76 8b 9b be 6d 56 d6 3d
       -0.27104816 -0.0777059 -0.30379838 0.10465703
0001b0 c0 69 25 be c6 89 d5 3e 67 d5 d6 bf e5 1e ba 3e
       -0.16153622 0.41706675 -1.6783875 0.36351696
0001c0 13 df 98 3e 57 90 55 be 4b 09 ae be 1b 97 98 3f
       0.29857692 -0.20855843 -0.33991465 1.1921114
0001d0 d1 15 28 be 17 07 2c c0 96 38 0d 3e de b5 5d 3e
       -0.16414572 -2.6879327 0.13791117 0.21651408
0001e0 1d 28 e6 3e a3 57 64 be 70 b5 e7 bf ff 63 3e bd
       0.4495248 -0.22299056 -1.8102245 -0.046482082
0001f0 06 9d 62 3e d5 3c 0e 3f 45 55 ad 3e b3 a2 03 c0
       0.22130212 0.5556157 0.33854118 -2.0568054
000200 61 f5 0d 3f 9e 49 49 3e e3 62 35 3e 0e 06 b2 bd
       0.55452543 0.19656989 0.17713504 -0.08692561
000210 a9 3f de 3d 2e 23 9a 3e 78 71 39 be 43 c9 e2 be
       0.10851986 0.30104965 -0.18109691 -0.44294176
000220 e1 c2 95 be f0 22 a8 be 87 19 8e be ac 1e a6 be
       -0.29250243 -0.32839155 -0.2775385 -0.32445276
000230 e3 51 0b 3f e7 a2 75 bd 9f e4 07 c0 b5 bf cc 3e
       0.54421824 -0.05996981 -2.123329 0.3999001
000240 cd 06 6e 3d 9d 53 3d 3f 16 0f 87 3e a9 45 dd bf
       0.058111954 0.7395571 0.26378697 -1.7286884
000250 e4 78 d6 bc f0 c0 34 3d 1e 6a 82 3d 4d 92 a8 be
       -0.026180692 0.044129312 0.063678965 -0.3292412
000260 37 12 89 3e 86 33 e3 be 3a 70 ae be 90 64 8e 3e
       0.2677171 -0.44375247 -0.34069997 0.27811098
000270 9c 37 16 bc bd d9 ff bf 9d 60 06 3f 30 18 f9 3d
       -0.009168532 -1.9988323 0.5249117 0.121628165
000280 78 c5 61 3f 08 5d 61 be b7 ad 01 c0 79 49 93 3e
       0.8819194 -0.22008145 -2.0262277 0.28766993
000290 99 00 98 3e 6f 42 a6 3e bb 95 92 3e 2d 64 7d 3f
       0.29687956 0.3247256 0.2862986 0.9898098
0002a0 6f 07 9c be 52 3f c2 3e 46 97 e8 bc 6f 02 90 3e
       -0.3047442 0.37938935 -0.028392445 0.28126857
0002b0 44 1a f7 be 34 52 04 3f 98 69 b8 3d 79 a0 2b 3f
       -0.48262227 0.5168793 0.090045154 0.67041737
0002c0 26 5c e6 be cb 61 e1 bf 65 12 13 bc 2b 84 e4 3e
       -0.4499218 -1.7607969 -0.008976554 0.44632086
0002d0 bd a7 4a 3d bf 5c 3a 3a 94 90 87 3e 8f 22 10 3e
       0.049476374 0.0007109157 0.26477492 0.14075683
0002e0 c9 c5 84 be 01 52 24 3f e8 42 b3 be 41 b6 18 c0
       -0.25932148 0.6418763 -0.35011983 -2.386124
0002f0 d0 19 9b 3e 59 fc b2 3e d1 e1 f6 be 85 ef d2 3e
       0.3029313 0.3495815 -0.4821916 0.41198364
000300 e2 aa 44 3f a6 bb 7f be 9f 08 d1 be 56 d0 2d bf
       0.76823246 -0.24973926 -0.4082689 -0.6789602
000310 95 ab 93 3e a8 1b 81 40 ef 9a cb 3e e9 09 cc 3c
       0.28841844 4.034626 0.39766642 0.02490707
000320 55 c0 f3 bd 99 96 a2 3e 24 f8 a2 3e 40 a5 a6 3d
       -0.11901919 0.31755522 0.3182994 0.08136988
000330 15 bb a8 3e a2 1a 1c 3d 9b 88 ab 3e 26 db aa 3e
       0.32955232 0.038111337 0.3350266 0.33370322
000340 f8 00 ca 3e 6f 85 e2 bd e4 1b 00 3f 66 ae ca be
       0.39453864 -0.11060607 0.5004256 -0.3958618
000350 f7 b5 c4 bf c2 ea d3 bb 7c b6 c8 3e da c8 fd 3f
       -1.5368031 -0.0064671943 0.39201725 1.982692
000360 d8 a7 24 be ea 4b 91 c0 68 e4 70 be da 2d 19 3e
       -0.16079652 -4.540517 -0.2352463 0.14958897
000370 99 22 ab bd 50 35 cd bd 8a 4c 18 bf 39 19 1b be
       -0.08356208 -0.10019934 -0.5949179 -0.1514634
000380 60 ad bd 3e 75 a3 28 be c9 b6 66 be 46 15 b1 be
       0.37046337 -0.16468604 -0.22530665 -0.34586543
000390 a2 1c 6b 3e 80 14 b3 be 60 d8 bb 3d e6 52 a9 be
       0.22960141 -0.34976578 0.0917213 -0.3307106
0003a0 cd b5 9e bc c3 be 9b 3e 06 1e e8 bd f6 6d 3f 3f
       -0.019373799 0.30418977 -0.113338515 0.7477716
0003b0 b7 6e f7 3e 6a c7 15 bf b5 2f 1d 3f 15 8b 30 bc
       0.48326656 -0.58507407 0.6140092 -0.010775347
0003c0 79 d5 c4 3f 03 83 49 be 76 ce 70 c0 0a 4e b2 3e
       1.5377647 -0.19678883 -3.7626014 0.34825164
0003d0 98 9c 3f 3e cb d7 cd 3d 9b 05 c8 be 60 8b 80 3e
       0.1871208 0.10050925 -0.39066777 0.25106335
0003e0 7a 8d 6e 3d e1 a4 d1 be cb be 13 3f ef c2 f3 bd
       0.05824039 -0.40946105 0.57713 -0.11902415
0003f0 e0 ee 0e c0 cd 87 b1 3e 3d fb f4 3e 75 36 c9 be
       -2.2333298 0.3467392 0.4784793 -0.3929936

hiddenlayers.0.bias f4 [64]
000000 71 58 bf be 07 10 42 bf be cc c7 3e 3a a7 8d be
       -0.37372163 -0.75805706 0.39023393 -0.27666646
000010 fa 7f db be 8b 30 a2 be c6 5f ee 3e cc f7 bb be
       -0.42871076 -0.3167766 0.46557444 -0.36712492
000020 c9 6f ba be d7 47 31 be 66 2e 78 3f 54 a6 a8 3e
       -0.3641341 -0.17312561 0.969458 0.32939398
000030 8a 2b d2 bd 38 96 d9 be f5 7a 9d 3e 9b e0 14 3e
       -0.10262211 -0.4249742 0.3075787 0.14538805
000040 a5 55 c4 3e 9c 81 e2 be c1 1c aa 3e 9a c9 51 bd
       0.38346592 -0.4423951 0.33225062 -0.051217653
000050 25 7a a8 3d 54 22 a7 3e eb e6 94 be 67 a0 07 bf
       0.08226422 0.32643378 -0.29082426 -0.5297913
000060 1a 4d a3 3b 31 12 bc be c1 07 bd 3c 87 86 55 bd
       0.0049835565 -0.3673263 0.023074986 -0.05213025
000070 5e bd 69 be 08 4d 2a 3b e1 b5 87 3e e5 64 50 3e
       -0.22826144 0.0025985856 0.2650595 0.20350988
000080 1e 1c ff be b8 48 65 be fa ee 22 be 8d 03 0e 3d
       -0.4982614 -0.22391021 -0.15911475 0.034671355
000090 21 e8 ab be 18 d1 a1 be 91 74 a3 bc cc 8b 21 3f
       -0.33575538 -0.31604838 -0.019953044 0.6310394
0000a0 ba b2 77 3c f9 ee d4 3e c8 04 97 3e d3 32 d6 be
       0.015118295 0.41588572 0.29495835 -0.4183565
0000b0 07 e7 d7 be e3 f0 ba be 7c 65 a1 be bd 6c ab 3e
       -0.42168447 -0.36511907 -0.3152274 0.33481398
0000c0 da 1c ee be 3a 5a 31 3e 1d 1e 58 be ef a8 bc 3e
       -0.46506387 0.17319575 -0.21105237 0.36847636
0000d0 ee ba 24 3e 86 97 e5 3e 90 d1 56 be 02 4c c9 be
       0.16086933 0.44842166 -0.20978379 -0.39315802
0000e0 a5 65 08 be 7b c5 9e 3e 0a af 33 3e 80 dd 39 be
       -0.13320024 0.3101004 0.17547241 -0.18150902
0000f0 e0 f0 9d 3e c2 74 c9 be 6e 97 c3 be 98 ab 1f 3e
       0.30847836 -0.39346892 -0.3820147 0.15592802

hiddenlayers.2.weight f4 [64, 64]
000000 f3 72 48 be 8d 1e 8e bd 44 dc 0d 3e 8a f8 12 3e
       -0.195751 -0.06939421 0.13853556 0.14352623
000010 76 19 0b 3c 73 71 2b 3e 61 1c 54 3d 05 c9 ef bb
       0.008489957 0.16742496 0.051784877 -0.0073176646
000020 43 9e 1f be 17 35 6f bd 89 38 ad 3d b8 5b c3 bd
       -0.15587716 -0.05840024 0.08458049 -0.09538978
000030 10 fd dc bc 94 3c bb bd ca e4 76 3d e0 d0 e6 3c
       -0.026976138 -0.09142414 0.060276784 0.028175771
000040 4d dd 19 3b 88 f3 1e 3d df 9f fb 3b c0 b4 3f 3d
       0.0023477853 0.03880647 0.00767897 0.046803236
000050 50 02 e2 bd 0c 6f fe 3d 79 c0 d7 bc 25 ab a9 bd
       -0.11035597 0.12423524 -0.026336895 -0.08284596
000060 38 d6 00 be d0 3f 90 bd aa 6d 96 3d c0 6f 08 3c
       -0.12581718 -0.07043421 0.073451355 0.0083274245
000070 65 8b 17 be ce fc d7 bc 82 7d bd bd 9e c5 98 3d
       -0.14799269 -0.026365664 -0.09252454 0.074595675
000080 dc 45 0d bc 32 58 1b 3d 95 cc 1a bd 0d a0 35 3c
       -0.008622613 0.037925906 -0.03779276 0.011085522
000090 62 94 ed 3d 35 6e bd bc f6 ba bd 3d c8 ac 3f 3d
       0.116005674 -0.02312384 0.092641756 0.046795636
0000a0 8f b1 90 3d 3b c7 65 3d a1 79 c0 bd 73 42 ab be
       0.070651166 0.056098204 -0.09398199 -0.33449134
0000b0 ee d2 bf 3d f0 d0 42 bc 6e d7 87 3d 62 61 89 3d
       0.093664035 -0.011890635 0.06632887 0.067080274
0000c0 03 aa 45 bd e8 11 da 3d 59 cf 71 bd 62 7a f7 3d
       -0.04825784 0.106479466 -0.059035633 0.120838895
0000d0 06 58 c0 3d 94 c5 a5 3d 5c 75 c1 bd e2 05 d5 bd
       0.09391789 0.08094326 -0.09446213 -0.10401513
0000e0 71 77 63 3d ec ff fc bc ae 49 3a 3c ac 9e 61 3d
       0.05553383 -0.030883752 0.011370106 0.055082962
0000f0 ed 78 a5 3c d2 21 1b 3d e6 c4 ea bd 09 9d 97 3c
       0.020199263 0.03787405 -0.11463337 0.018507497
000100 c9 89 46 bd 1c 5c a6 3d 37 0b ba bd 5f c5 5d bd
       -0.048471246 0.08123037 -0.0908417 -0.054143306
000110 9f 0b bc 3d 51 17 ef bc c1 a7 23 bd 1e 2a 9b 3b
       0.09181904 -0.029185923 -0.039954904 0.0047352454
000120 14 2b 76 bd b9 5f 2d bd b6 fb a3 3d 68 aa f8 bd
       -0.060099676 -0.042327616 0.080069944 -0.121418774
000130 1c b0 02 bd d0 21 1f 3c 4f d5 91 3a 16 01 8f 3d
       -0.031906232 0.009712651 0.0011126193 0.06982629
000140 e7 5e 7f bd ae 9d fd bd c8 0b ff 3d 00 d3 7b 3a
       -0.062346365 -0.12383591 0.12453419 0.00096063316
000150 30 b3 71 bd 5c a9 57 bd 13 93 9f 3c f9 96 cd bd
       -0.059008777 -0.052651748 0.01947931 -0.100385614
000160 ae 3c c7 bd 2f fa 13 3b 9c cb f5 3d 88 f4 ab bc
       -0.097283706 0.002257954 0.12001726 -0.020990625
000170 68 06 8c bd cc 04 86 3d 18 6d 48 3d eb 95 14 bd
       -0.068371594 0.06543884 0.048932165 -0.036275785
000180 6e c7 dc 3d b6 54 ff 3d d0 32 a9 bd a6 9d 6f bd
       0.10780226 0.12467329 -0.08261645 -0.058499955
000190 00 69 3f 3d e5 66 d6 bd 67 86 17 bd c4 9e 87 bd
       0.046730995 -0.10468844 -0.03699341 -0.06622079
0001a0 75 39 27 bd ff 08 e2 3d 85 73 93 3d 55 3f 8b 3c
       -0.04082628 0.11036872 0.07199768 0.016997973
0001b0 64 05 ce bd 98 46 59 bd 40 86 a0 3b 3a ab e8 3d
       -0.10059622 -0.05304584 0.0048988163 0.11360784
0001c0 fe 8f 2f 3d 1c 8f a9 3d 4c d2 11 3d 6f 98 02 3e
       0.04286193 0.08279249 0.035600945 0.12753461
0001d0 00 02 94 3c e1 c7 56 bd 4a 96 87 bc 00 61 93 3b
       0.01806736 -0.052436713 -0.016551156 0.0044976473
0001e0 43 92 8a 3d 04 f8 52 3d 6c 10 4c 3d d6 e7 f5 bd
       0.067661785 0.051506057 0.04982035 -0.1200711
0001f0 a5 e9 e0 bd af 45 5c 3d 06 30 ad bd 49 34 dd 3d
       -0.10982064 0.053777393 -0.08456425 0.10800988
000200 7f 69 de bc 62 e0 01 3d cd 31 ec bb c5 3b 49 bc
       -0.027149914 0.03170813 -0.007208085 -0.012282317
000210 79 ce a1 bd 9a 38 a2 3d 67 72 36 3d 0e e8 80 bd
       -0.0790071 0.07920952 0.044542696 -0.06294261
000220 d6 e5 ea bc f8 36 b2 3d a5 21 e2 bd 30 3f fb 3c
       -0.028674047 0.08701891 -0.110415734 0.030669779
000230 70 45 0b 3c f0 67 11 bd ba 45 89 bc c0 52 d5 bd
       0.008500442 -0.035499513 -0.016756881 -0.10416174
000240 cb c8 24 bd 04 c6 3a bd b1 a7 fb bd 80 1d 37 3d
       -0.040230554 -0.045599 -0.12287844 0.044705868
000250 70 a6 81 3d 53 c6 d8 39 e5 8b 71 bc 82 d9 4e bd
       0.063305736 0.00041346494 -0.014742826 -0.0505004
000260 c0 55 26 bc e1 fd dc 3d 52 75 8d bd c0 9c 59 bd
       -0.01015228 0.10790611 -0.06907143 -0.053128004
000270 6e 06 8f bc 8b 78 ce 3d c0 23 4a bb ed ba d4 3c
       -0.01745912 0.100815855 -0.0030844063 0.02596804
000280 3f d7 c2 bd 0d a8 22 bc 2f 51 8c bc 34 25 dc 3d
       -0.09513711 -0.009927762 -0.017128555 0.107492834
000290 20 22 a1 3b 12 06 82 bd b7 38 6f bd d7 b7 af bd
       0.004917398 -0.06348814 -0.058403697 -0.085799865
0002a0 20 73 00 be c5 64 5b bd eb d5 9a 3b e5 c2 dd bd
       -0.12543917 -0.0535629 0.004725208 -0.10828189
0002b0 4a 66 ad 3d 8e 83 d1 bd 88 89 a7 bc cb e6 24 3d
       0.08466776 -0.1023017 -0.020451322 0.040259164
0002c0 ae f5 81 3d 5c 3e ff bd 5c 50 3e 3d 1b 61 9c 3d
       0.06345688 -0.12463066 0.046463355 0.07635709
0002d0 ba 32 bb bd 42 ab db 3d a8 1a 7c 3d 14 b6 c1 3d
       -0.09140535 0.10726024 0.06154886 0.09458557
0002e0 ce a6 ed bc f7 92 df bc d0 2a 11 bc 78 85 3b 3d
       -0.029010203 -0.027291758 -0.008860305 0.045781583
0002f0 5c 2e 90 bd cd b4 93 bc fc 42 bd bd 3a 5c dc 3c
       -0.07040092 -0.018030548 -0.09241292 0.026899446
000300 44 3f ef 3d 80 e3 70 3c 9c ce b6 bd f6 a2 1a 3d
       0.11681989 0.014702678 -0.08926126 0.037753068
000310 04 ec d2 bd 18 9e b0 3c c6 86 d0 3c c8 29 8e 3d
       -0.10298923 0.02155976 0.02545489 0.06941563
000320 04 fe f9 bd 2e 46 2f 3a 76 64 1c 3d 38 b6 ad 3d
       -0.12206653 0.0006686178 0.038181745 0.08482021
000330 56 e2 bb bd 08 25 45 bd 1a 9c a8 3d 80 e6 b2 bd
       -0.091740295 -0.04813102 0.08232899 -0.08735371
000340 1b 67 07 be 1e 02 d9 3d 5c f0 43 bd 18 63 8e bc
       -0.13222925 0.10596107 -0.047836646 -0.017381236
000350 78 ea 98 3c da 4a 92 bb 73 fd f3 bd a0 d8 56 3d
       0.01866649 -0.0044644894 -0.11913576 0.052452683
000360 0c 79 67 bd 00 4e ba 3d 94 8e b4 bd b0 c2 54 bd
       -0.056511924 0.090969086 -0.08816257 -0.05194348
000370 f0 d7 b7 bd e5 94 8d 3b 80 b9 6e bb 24 0d ba bd
       -0.08976734 0.004320728 -0.0036426485 -0.090845376
000380 5e 26 e9 bd 4e f4 76 3d a0 5a c4 bc 42 b9 be bd
       -0.11384271 0.06029158 -0.023968995 -0.09312679
000390 b0 ea 9b bc ac ac df bd 28 4c 3c bd 2c be 2c 3d
       -0.019032806 -0.109216064 -0.045971066 0.04217355
0003a0 93 79 3a bd 60 0d a9 bc c8 e0 84 3c fe 15 84 3d
       -0.0455261 -0.02063626 0.016220465 0.06449507
0003b0 62 93 d5 bc d4 38 f4 bd ac 56 3a bd 9c 02 12 bd
       -0.026071254 -0.119249016 -0.045492813 -0.03564702
0003c0 ce 82 ec bd f6 23 cb bd 79 52 95 3d bc 34 41 bd
       -0.115483865 -0.099189684 0.07291121 -0.047169432
0003d0 10 20 8f 3c 7e ca 23 bd f4 0a a0 3d 84 06 76 bd
       0.017471343 -0.039988033 0.07814589 -0.060064808
0003e0 f1 38 f8 bd 09 13 b4 bd 15 bf 3d 3d 44 14 05 bd
       -0.12120236 -0.08792693 0.04632481 -0.03249003
0003f0 10 37 b5 3d 92 6b 99 3d 88 45 bc 3d c6 f7 f1 bd
       0.08848393 0.074912205 0.091929495 -0.11814837

hiddenlayers.2.bias f4 [64]
000000 48 9e 54 3e 56 87 aa 3d d2 76 fd bd 5e f5 62 bd
       0.20763505 0.083265945 -0.12376179 -0.05540978
000010 38 8e 32 3d 22 cc 1a bd 4c b7 87 bd 91 ee 5c 3d
       0.04359266 -0.037792332 -0.06626758 0.053938452
000020 e0 29 e4 3b 82 d5 93 bd bc ec 28 3d e2 93 47 3e
       0.0069629997 -0.07218458 0.041241392 0.19490007
000030 3f 23 88 3d 7a 5a d3 3e 11 4c f6 bc 08 37 cc 3d
       0.06647348 0.41279966 -0.030065568 0.09971434
000040 78 43 b5 3e d4 74 e4 3d fc 4d 34 bd a8 b2 e4 3c
       0.35403037 0.11155096 -0.044019684 0.027917221
000050 ad 5d 73 bb b1 52 f3 3d 64 67 66 bd f5 8b e2 3e
       -0.0037134693 0.118810065 -0.056250945 0.44247404
000060 b0 a0 33 bd 3e 2a 81 3d 92 b1 b8 3e b0 a8 d5 3d
       -0.043854415 0.06306885 0.36072975 0.10432565
000070 c6 cd 83 bc 96 0e ca 3e 96 6b aa bd 58 20 14 3d
       -0.016089331 0.39464253 -0.08321302 0.036163658
000080 6d 34 06 3f 89 89 9b bc 15 4d 13 3e f6 78 dc 3d
       0.52423745 -0.01898648 0.14384873 0.10765259
000090 ea 23 10 bc 61 75 4f 3e f3 14 59 3e 68 47 0f 3d
       -0.008797625 0.2025962 0.21199398 0.034980208
0000a0 bd 46 c3 3d 90 a0 b2 3e 3f cc e0 3d 00 f7 75 3a
       0.09534977 0.34888124 0.10976457 0.0009382814
0000b0 54 75 d2 bd 48 6b f4 bd dc cb db 3d 65 6c c3 3d
       -0.10276285 -0.11934525 0.107322425 0.09542159
0000c0 c1 79 84 bd ea 78 a2 3c 0d a3 b8 bc 28 1d 13 3d
       -0.06468535 0.019833047 -0.022538686 0.035916477
0000d0 58 79 0b bc f2 3c b5 3c c7 3a 1e 3c 7e c6 71 3d
       -0.008512817 0.022123788 0.009657568 0.059027188
0000e0 2b 0b cf 3e d1 7d c9 3d 6c 20 b6 bd 3f 92 58 3d
       0.40438208 0.09838451 -0.08892903 0.052873846
0000f0 40 d2 e3 3b 15 5c cd 3d 17 9f a2 3d c7 59 0c bd
       0.006952554 0.10027329 0.079405 -0.034265306

hiddenlayers.4.weight f4 [1, 64]
000000 d4 09 39 be 2f 39 2b bd d0 c8 6a 3d ae 08 aa 3c
       -0.18070155 -0.04180258 0.057320416 0.020756092
000010 65 3c e6 3d ff cf 84 3d 50 5a 4a bc 26 fa 00 3e
       0.11241988 0.064849846 -0.012350634 0.12595424
000020 24 ab 0d bd 16 02 88 3d 5b 7f 02 bd 28 9b f9 3d
       -0.03458704 0.06641023 -0.031859737 0.12187797
000030 91 5e 08 3e f3 20 3e be 2b f6 cb bd a0 51 91 3d
       0.13317324 -0.18567257 -0.09959062 0.07095647
000040 bd c8 b0 bd bf 01 1a be 7d ea 22 3e 80 94 65 bc
       -0.08632038 -0.15039729 0.15909763 -0.014012456
000050 ea bf 07 3e be 07 c3 3d 5a f7 ff 3d b5 a9 58 be
       0.13256803 0.09522961 0.124983504 -0.21158488
000060 6c 84 e4 bd c0 b4 74 bc 16 97 3e be 7d a0 14 3d
       -0.1115807 -0.014935672 -0.18612322 0.036285866
000070 7b cb ac 3d 5a 13 10 be b5 85 24 3e 49 72 ac 3d
       0.08437248 -0.14069882 0.1606663 0.08420236
000080 27 d5 e4 bd 91 ef 2b 3e 54 b5 d8 3d 92 87 f7 3d
       -0.11173468 0.16790606 0.105814606 0.12086405
000090 ab ab a7 bd 5e 2b de bd d2 d6 b8 bd 88 04 c3 bc
       -0.0818704 -0.108481154 -0.09025349 -0.023805872
0000a0 dc 2a 72 bd 96 c8 0e be be 26 bf bd 4a 80 c4 3d
       -0.059122905 -0.13943705 -0.09333561 0.09594782
0000b0 64 92 0d bd 68 d0 d2 3d 00 5d 60 3b a0 57 cb 3d
       -0.034563437 0.102936566 0.003423512 0.099288225
0000c0 25 14 8e 3b 07 8a ae bd 53 4e 45 bc 16 a1 b4 3d
       0.0043358975 -0.085224204 -0.0120426 0.08819787
0000d0 06 13 1a 3e 63 f2 b6 3d 18 2c e8 3d 1b d8 86 3d
       0.1504632 0.0893295 0.11336535 0.065841876
0000e0 bb 4b f4 bd 64 74 32 bd 82 fd d4 bd 2a 9f bc 3d
       -0.11928507 -0.04356803 -0.10399915 0.09210046
0000f0 18 69 88 3d e8 bd eb 3d a5 10 32 bd b2 95 19 3e
       0.0666067 0.11510831 -0.043472905 0.1499851
